lstm_model.pth (torch, 303203 bytes, 9 tensors)

lstm.weight_ih_l0 f4 [256, 98]
0	0x408c6186	4.3869047
1	0xc03581d4	-2.836049
2	0xbee82d17	-0.453469
3	0x3fa0f88f	1.2575854
4	0xbec95340	-0.39321327
5	0xbf485ddc	-0.7826822
6	0xc0918218	-4.5471306
7	0xc17658c9	-15.396676
8	0xc13db474	-11.856556
9	0xc043ae51	-3.0575144
10	0x40c35914	6.104624
11	0x40a6cbfe	5.2124014
12	0xc18fb2af	-17.962248
13	0x4043680d	3.0532258
14	0xc0160fb7	-2.3447092
15	0x3f9c20a5	1.2197462
16	0xc13bf788	-11.747932
17	0xbfe4f0e7	-1.7886018
18	0xc0d66156	-6.699382
19	0xc1481b11	-12.506608
20	0xc08df7b5	-4.4364877
21	0xc09d4366	-4.9144773
22	0xbc294940	-0.010332406
23	0xc13c4570	-11.7669525
24	0xc13ec3af	-11.922774
25	0xc02f8b93	-2.742894
26	0xc11dfedc	-9.874722
27	0x3d27ad14	0.040936545
28	0xc0b4710c	-5.6387997
29	0x40511bae	3.2673144
30	0xc1ca164b	-25.260885
31	0x408f0089	4.4688153
32	0xc1274e43	-10.456607
33	0x40ba731e	5.8265524
34	0xc0c076c7	-6.014499
35	0xc070b6e3	-3.7611625
36	0xbb792948	-0.003801899
37	0x40c3abd0	6.114723
38	0x40166a02	2.3502202
39	0x404a368d	3.1595795
40	0xc15602f3	-13.37572
41	0x40b8c742	5.7743235
42	0xc0231a0a	-2.5484643
43	0x3f01dc58	0.5072684
44	0xc09a3967	-4.819507
45	0xc16d0138	-14.812798
46	0x40a00534	5.000635
47	0xc18cbdb9	-17.592638
48	0xc1c7b64c	-24.964012
49	0x40e7fc9b	7.2495856
50	0x406af390	3.6711159
51	0x418e480c	17.78518
52	0x41948152	18.563145
53	0xc000c0a8	-2.0117588
54	0xc0f61fab	-7.6913657
55	0xc04d1a6f	-3.2047384
56	0x40991d73	4.784845
57	0xc0c67ba7	-6.2025943
58	0x3dae162c	0.08500323
59	0x3f101075	0.5627511
60	0xbe389d5f	-0.18028782
61	0xc004f9e0	-2.0777512
62	0x3db3578c	0.087569326
63	0xc1304c03	-11.018558
64	0x3df225aa	0.1182359
65	0x40c9e163	6.308763
66	0xc13f3c52	-11.952227
67	0xbff65c23	-1.9246868
68	0xc0ff858c	-7.985052
69	0xc1a120f9	-20.1411
70	0xc08b1cdb	-4.3472724
71	0xc14cbcf5	-12.796132
72	0x3d15fa58	0.0366157
73	0x410266bb	8.150081
74	0xc0c230b4	-6.068445
75	0xc0b610af	-5.6895366
76	0x3d31718c	0.043321177
77	0xc0547a99	-3.3199828
78	0x403101e0	2.7657394
79	0xc117f17c	-9.496456
80	0xc106a236	-8.414602
81	0x400a7bde	2.1638103
82	0x40e3b3c3	7.1156936
83	0x40e10d97	7.032909
84	0xc1373a09	-11.451669
85	0x3cc623b8	0.024186954
86	0x40b1171c	5.534071
87	0xc1822477	-16.267805
88	0x40138ae4	2.3053522
89	0xc149395f	-12.576507
90	0xc0a37785	-5.10834
91	0xc13f4b2d	-11.955853
92	0xc12f3cc3	-10.952334
93	0xc107ddd2	-8.491655
94	0xc0d7dcbf	-6.7456965
95	0x40910edc	4.533064
96	0xc0ba573d	-5.823149
97	0x40ae3d14	5.444956
98	0x3f117846	0.5682415
99	0x3f4ab7f3	0.79186934
100	0x3f9d4493	1.2286552
101	0xbd979174	-0.0740079
102	0xc04bfb18	-3.1872005
103	0xbf43ecba	-0.7653309
104	0x40aaa391	5.3324666
105	0x406f8095	3.742223
106	0x41042426	8.258825
107	0x411129c3	9.072696
108	0xc0a07284	-5.013979
109	0xc0566d7c	-3.3504324
110	0xc096c949	-4.712071
111	0x40f7e03a	7.7461214
112	0x41124ff1	9.144517
113	0x4176be59	15.421472
114	0xc0c7bcec	-6.2418118
115	0x4044a8f0	3.0728111
116	0x414ac05d	12.671964
117	0xbfb001bb	-1.3750528
118	0x416e3c59	14.889733
119	0xc0b0eb38	-5.528713
120	0xbde4668a	-0.1115237
121	0x41810423	16.12702
122	0xbead137b	-0.33803925
123	0xc03870fe	-2.8818965
124	0x41247760	10.279144
125	0xbcdfb7f8	-0.027309403
126	0x408a2835	4.317408
127	0xbfcd4ee5	-1.6039702
128	0x417ab803	15.669925
129	0x40f0f357	7.5297046
130	0xc11444b9	-9.266778
131	0xc187e73e	-16.987911
132	0xc120adcd	-10.042432
133	0x405053b9	3.25511
134	0xc182dfd5	-16.359293
135	0x3f8c5551	1.0963537
136	0x402b59af	2.6773489
137	0xc03d4ca7	-2.9578035
138	0xc09865fa	-4.7624483
139	0x3fb97456	1.4488628
140	0xc08eed59	-4.466473
141	0x407fdcc7	3.9978502
142	0xc10da665	-8.853124
143	0x40731970	3.7984276
144	0xc11e2353	-9.883624
145	0xc12d3784	-10.826054
146	0x414685f5	12.407704
147	0x3ea223cb	0.31667933
148	0x40418c9d	3.0242074
149	0x411eb096	9.918112
150	0x4122280a	10.134775
151	0xc0a828a5	-5.2549615
152	0x408575dc	4.170637
153	0xbecc1947	-0.39863035
154	0xc04dbb40	-3.2145538
155	0x419ec9ac	19.848473
156	0x3dcc7f64	0.09985235
157	0x40a36fa6	5.107379
158	0x41cbabdd	25.458918
159	0x411ded4d	9.870435
160	0x3d90d64a	0.070721224
161	0x410e59a5	8.896886
162	0xbbbae820	-0.005703941
163	0x3f84200c	1.032228
164	0x411a6629	9.649941
165	0x4179463d	15.579648
166	0x4119386e	9.576277
167	0xc18081cf	-16.063383
168	0xbfd6bb7a	-1.6775963
169	0x4179c9ad	15.611737
170	0x3dfa0276	0.12207501
171	0x410c05f3	8.751452
172	0xbf889aed	-1.067228
173	0x3ede086b	0.43365797
174	0xbc67a2c0	-0.014137924
175	0xc09e3139	-4.9435086
176	0xbd19fcc3	-0.037594568
177	0xc112e3d2	-9.18062
178	0xc0db67c1	-6.8564153
179	0x402db9f4	2.7144747
180	0xc145d59d	-12.364652
181	0x4117ddf1	9.491685
182	0x4031d86f	2.778835
183	0x3dcca4d6	0.099923775
184	0x4160c8fb	14.0490675
185	0x41a209c7	20.254774
186	0xc08f6888	-4.48151
187	0x401e9715	2.4779713
188	0x406193d1	3.524647
189	0x404796a1	3.1185687
190	0x3f7e57dd	0.9935282
191	0x416dc962	14.861666
192	0x3e38c3c7	0.18043433
193	0x3f8edcdc	1.1161151
194	0xbf36d122	-0.7141286
195	0xc0e6166f	-7.1902385
196	0x400fe4a9	2.2483313
197	0x3e1b8cfd	0.15190502
198	0x3e20d7cf	0.15707324
199	0xbb50e273	-0.0031873256
200	0x3ec5db65	0.38643947
201	0x40188bf1	2.3835413
202	0x3fa6f390	1.3043079
203	0x40457221	3.0850909
204	0x3fdf020b	1.7422498
205	0x4070fe68	3.7655277
206	0xbf9efc86	-1.2420814
207	0xbd6ce303	-0.057833683
208	0x3ffe543f	1.986946
209	0x400d9c9b	2.2126834
210	0x3f24e902	0.6441804
211	0x401555f1	2.3333704
212	0x4025e277	2.5919473
213	0x404c8a6e	3.195949
214	0x40288c97	2.633581
215	0x3ff4f1d6	1.9136302
216	0x404a516e	3.16122
217	0xbf781c47	-0.9691815
218	0x3ca02728	0.019549921
219	0x406c3e1c	3.6912909
220	0xbef94a6c	-0.48689592
221	0x3f3b24ba	0.73102915
222	0x40809203	4.0178237
223	0xbd0503c0	-0.03247428
224	0x3fc4edb0	1.5385036
225	0x404a6593	3.1624496
226	0x4087c39e	4.242629
227	0x400228d5	2.0337422
228	0xbebaa8aa	-0.36456805
229	0x3fd9ab99	1.7005492
230	0x3f0aee80	0.5427017
231	0x4042ea5c	3.0455542
232	0xc03a58fc	-2.9116812
233	0xbf03739a	-0.5134827
234	0x3f80689a	1.0031922
235	0x400e34a5	2.2219632
236	0xbf8dd75c	-1.1081347
237	0x3faa5601	1.3307496
238	0x3d3f9e97	0.046782102
239	0x3fbb824d	1.464914
240	0xbf9c6861	-1.2219354
241	0x404fc6b7	3.2465036
242	0x3fde1fde	1.7353475
243	0x3fa472c8	1.2847528
244	0x408cc921	4.399552
245	0xbf72a5e8	-0.947844
246	0x3f9cd46e	1.2252328
247	0xbec24c90	-0.37949038
248	0xbe5d4f7e	-0.21612355
249	0xbf24170d	-0.6409767
250	0x3f242421	0.6411763
251	0x3dc26c97	0.09493368
252	0x40282864	2.6274652
253	0x3fba56a3	1.455769
254	0xbdfb403a	-0.122681096
255	0x3f964fff	1.1743163

lstm.weight_hh_l0 f4 [256, 64]
0	0x3de82042	0.11334278
1	0x3da00e88	0.078152716
2	0x3d9ac280	0.07556629
3	0x3d1abaec	0.03777592
4	0xbde33e28	-0.1109584
5	0x3d93a8f2	0.07209958
6	0x3c259950	0.010107353
7	0x3980f800	0.00024598837
8	0xbcb2c810	-0.021823913
9	0xbc528070	-0.012848005
10	0xbd0a89c8	-0.033822805
11	0x3db80b76	0.08986561
12	0xbdccbd8e	-0.09997092
13	0x3c9220e8	0.017837957
14	0xbde3bb52	-0.11119713
15	0x3db10708	0.08643919
16	0xbd51c160	-0.051209807
17	0xbda5347a	-0.0806665
18	0xbde6d7e8	-0.112716496
19	0x3ca7f730	0.02050361
20	0x3d07694c	0.033059403
21	0xbdfdcc18	-0.123924434
22	0xbdf45de2	-0.11931969
23	0xbdd69a9e	-0.1047871
24	0xbbedec60	-0.007260844
25	0x3d9e9f4c	0.07745227
26	0x3d188d3c	0.037244067
27	0x3cf167c8	0.029468432
28	0xbc82d950	-0.015972763
29	0x3db9b64e	0.09067975
30	0x3d8044d2	0.062631264
31	0xbd1101a8	-0.03540197
32	0xbcd7a9a0	-0.026326
33	0xbc4a94d0	-0.012364581
34	0xbdd7620e	-0.10516749
35	0xbc3faa60	-0.011698335
36	0x3dbbe36e	0.09174238
37	0xbd0de374	-0.034640744
38	0x3dedf000	0.11618042
39	0x3d6c74d4	0.057728603
40	0x3daea69a	0.085278705
41	0xbd71db4c	-0.05904703
42	0x3b9c53a0	0.004770711
43	0x3d0f6a40	0.035013437
44	0xbdef5bc8	-0.11687428
45	0xbdadd970	-0.084887385
46	0xbdb3ec90	-0.08785355
47	0x3cdb60b0	0.026779503
48	0x3d51ed58	0.05125174
49	0xbdbdf386	-0.09274964
50	0x3dacc5c0	0.08436155
51	0x3ccf3b00	0.025296688
52	0xbd702240	-0.058626413
53	0xbca9c140	-0.020722032
54	0x3cda3590	0.026636869
55	0x3d6695b0	0.056295097
56	0x3d9dd234	0.07706109
57	0x3ccd4f48	0.025062218
58	0xbd0fed08	-0.03513816
59	0x3de0f448	0.10984093
60	0xbab36400	-0.0013686419
61	0x3da5e8aa	0.08101018
62	0x3c344d30	0.011004731
63	0x3cb24c30	0.021764845
64	0xbdc24f34	-0.09487763
65	0xbdedb006	-0.116058394
66	0xbdf89a6e	-0.1213883
67	0xbd9f420e	-0.07776271
68	0xbd8af52c	-0.06785044
69	0x3daa808e	0.08325301
70	0x3db1da4a	0.086842135
71	0xbde40ac4	-0.11134866
72	0xbd3f1ddc	-0.046659335
73	0xbdc17420	-0.09445977
74	0x3de7b980	0.11314678
75	0xbb4850c0	-0.003056571
76	0xbdee81fa	-0.11645885
77	0x3b5737c0	0.0032839626
78	0xbdc699fc	-0.09697339
79	0xbda664fc	-0.0812473
80	0x3dd6029e	0.10449718
81	0xbce7de40	-0.02830422
82	0x3dca6946	0.098833606
83	0x3dda8eda	0.10671778
84	0xbd9e937c	-0.07742974
85	0x3dcf8200	0.101322174
86	0x3d3f8e70	0.0467667
87	0x3c1d0a20	0.0095849335
88	0xbdf6e610	-0.120556
89	0x3d25f014	0.04051216
90	0xbdcd6b4e	-0.10030232
91	0x3dac9f0a	0.08428772
92	0xbde1faac	-0.1103414
93	0xbd8a3776	-0.067488596
94	0xbdf5790c	-0.119859785
95	0x3cda0c30	0.02661714
96	0xbd319fac	-0.043365166
97	0x3ddf0fc4	0.10891679
98	0xbd06686c	-0.03281443
99	0xbdb72c0c	-0.08943948
100	0xbdf426fc	-0.11921498
101	0x3deb22a4	0.114812165
102	0xbdb7a632	-0.08967246
103	0x3d8923f8	0.066963136
104	0xbdfdbf72	-0.12390031
105	0x3d4da068	0.050201803
106	0xbd9d128a	-0.07669552
107	0x3d855800	0.06510925
108	0x3d684eac	0.056715652
109	0xbdfef61e	-0.12449287
110	0xbb2f3840	-0.0026736408
111	0xbd3ffb6c	-0.046870634
112	0xbd8c4918	-0.06849879
113	0xbcc675d8	-0.024226114
114	0x3dde1f24	0.10845783
115	0xbdb4a83e	-0.08821152
116	0xbd60e150	-0.054902375
117	0xbdd43150	-0.10360968
118	0xbd4cddd8	-0.050016254
119	0x3d52cd14	0.05146511
120	0x3d9918f4	0.074754626
121	0xbd1835ec	-0.0371608
122	0xbdf37ea2	-0.11889388
123	0xbdea446e	-0.11438833
124	0x3d9e28b2	0.07722606
125	0xbd2365bc	-0.039891943
126	0x3dfcde2e	0.12347065
127	0xbb603300	-0.0034210086
128	0x3db6112a	0.088899925
129	0x3d94e906	0.07271008
130	0x3d6786b0	0.056524932
131	0xbdbd36a4	-0.092389375
132	0xbdb293aa	-0.08719571
133	0x3de6c6d4	0.11268392
134	0xbdfe1972	-0.12407197
135	0x3debd686	0.115155265
136	0xbdeeb2a8	-0.1165517
137	0x3c88a290	0.016679078
138	0xbda6c04a	-0.08142145
139	0x3b2bac40	0.0026195198
140	0x3d1d72e0	0.03843963
141	0xbdff3908	-0.1246205
142	0x3d1a8200	0.037721634
143	0x3d19d7ac	0.037559196
144	0xbde0501a	-0.10952778
145	0x3dc0dc42	0.09417011
146	0xbde6e2da	-0.11273737
147	0x3ca7c1b8	0.020478114
148	0xbdc33a06	-0.095325515
149	0x3de29f4e	0.11065541
150	0xbc8ecef8	-0.017432675
151	0x3dcf0bd4	0.10109678
152	0x3d0e386c	0.034721777
153	0xbdf583b6	-0.119880125
154	0xbde3e906	-0.1112843
155	0x3cc77da8	0.02435191
156	0x3c8b8da8	0.01703532
157	0x3db82e34	0.089931875
158	0xbdfe34ec	-0.12412438
159	0x3d994362	0.074835554
160	0xbd7cbd8c	-0.061704203
161	0x3df961f8	0.12176889
162	0xbd425184	-0.04744102
163	0x3ce86710	0.028369457
164	0xbcb7de50	-0.022444874
165	0xbd88e156	-0.066836044
166	0x3dc33c06	0.09532933
167	0x3da77b76	0.08177845
168	0x3d6fbc40	0.05852914
169	0xbdf21e02	-0.1182213
170	0xbd966562	-0.07343556
171	0x3c2668d0	0.010156825
172	0xbdfe1144	-0.12405637
173	0x3df72508	0.1206761
174	0x3d45d254	0.048296288
175	0x3d96e322	0.07367541
176	0xbdfa529a	-0.12222786
177	0x3daff994	0.08592525
178	0xbc764130	-0.01503019
179	0xbd966624	-0.073437005
180	0xbcd0f620	-0.025507987
181	0x3c90e0d8	0.017685339
182	0x3d1309d8	0.03589806
183	0xbdb20e68	-0.08694154
184	0xbdf71aec	-0.12065682
185	0xbd487c70	-0.048946798
186	0xbdb6c13e	-0.08923577
187	0x3d342bd4	0.04398711
188	0x3c97a630	0.018511862
189	0xbd294c4c	-0.041332528
190	0x3c865270	0.016396731
191	0xbcb61828	-0.022228315
192	0xbc974b00	-0.01846838
193	0xbd6d8894	-0.05799158
194	0x3dfcc9de	0.123431906
195	0x3d4fa758	0.0506967
196	0x3d9453a2	0.07242514
197	0xbc679560	-0.014134735
198	0xbdfc6c8c	-0.12325391
199	0xbd497684	-0.04918529
200	0xbd9fecc4	-0.07808831
201	0x3dbeaeb0	0.09310663
202	0xbc9c5878	-0.019085154
203	0xbdeb2690	-0.114819646
204	0x3dd3841a	0.10327931
205	0xbdeedc3a	-0.11663099
206	0x3bd11d60	0.0063816756
207	0xbd5761c4	-0.05258347
208	0x3d988818	0.07447833
209	0x3baf5360	0.0053505152
210	0xbc059940	-0.008154213
211	0xbd2606ac	-0.040533707
212	0xbdc07992	-0.09398188
213	0x3d820602	0.06348802
214	0xbcf083f8	-0.029359803
215	0x3deb5c98	0.1149227
216	0xbdd5562a	-0.10416825
217	0xbdbbcec2	-0.09170295
218	0xbcb5ec38	-0.022207364
219	0x3dd77f76	0.10522358
220	0xbdb9ace0	-0.090661764
221	0x3a92d480	0.0011202246
222	0xbd1e1488	-0.0385938
223	0xbcfdf180	-0.030998945
224	0x3d37e0d4	0.044892147
225	0x3d8a11b4	0.06741658
226	0x3de88176	0.11352818
227	0xbdd4154c	-0.103556246
228	0xbdb22f14	-0.08700386
229	0xbdadd470	-0.08487785
230	0x3d8c3574	0.06846133
231	0x3da8256e	0.08210264
232	0x3cfa0350	0.030519158
233	0x3d4d7c9c	0.050167665
234	0xbd6eff40	-0.058348894
235	0xbd42256c	-0.04739897
236	0x3d6a24cc	0.057164
237	0x3d41e0e8	0.047333628
238	0xbd1fefec	-0.039047167
239	0x3dc1311c	0.09433195
240	0x3ce7c360	0.028291404
241	0x3d088e8c	0.03333907
242	0xbd1e974c	-0.038718507
243	0x3c9f67a0	0.019458592
244	0xbc4f88f0	-0.012666926
245	0x3db308bc	0.087419
246	0xbcaaa918	-0.020832583
247	0xbd489d74	-0.048978284
248	0xbbf916e0	-0.007601604
249	0xbd27269c	-0.040808305
250	0xbdd6fb40	-0.10497141
251	0x3d51bf04	0.051207557
252	0x3cce01d0	0.025147349
253	0x3cc61c98	0.024183556
254	0x3d74c73c	0.059760317
255	0xbd0c834c	-0.034304902

lstm.bias_ih_l0 f4 [256]
0	0x3f9d413f	1.2285537
1	0x3e4b99d3	0.19882898
2	0x404e3d44	3.2224894
3	0xbfcd51bc	-1.6040568
4	0xbef23b80	-0.4731102
5	0x3fcbca56	1.5921123
6	0x3fdd60f3	1.7295212
7	0xbd894a48	-0.06703621
8	0xc094dd0b	-4.651983
9	0xbde38671	-0.11109627
10	0x3e9a0c20	0.30087376
11	0xbe28feff	-0.16503523
12	0xbf7e650d	-0.9937294
13	0xc09b554d	-4.8541627
14	0x3f00a025	0.5024436
15	0xc00fa6f1	-2.2445643
16	0x3eb3a0ca	0.3508361
17	0xbf78f9a2	-0.9725591
18	0x3fd567f9	1.6672355
19	0xc02cea47	-2.7017992
20	0xbf2b7ac1	-0.6698418
21	0x401d6116	2.4590507
22	0x4063406e	3.5508075
23	0xbfa8dc87	-1.31923
24	0x4006baff	2.1051633
25	0x406fe8c9	3.748583
26	0x403769c3	2.8658302
27	0x401a88ad	2.414592
28	0xbfcdcf44	-1.6078877
29	0xbfc809c3	-1.5627979
30	0xbf8b6a83	-1.089188
31	0x3fe268df	1.7688254
32	0xbf5ad84d	-0.854863
33	0xc0270dd9	-2.6102202
34	0xbff12a43	-1.8841022
35	0xc01f934a	-2.4933648
36	0xbced39cf	-0.02895823
37	0x3f531800	0.82458496
38	0x40426a53	3.0377395
39	0x3fd8f8fa	1.6950982
40	0x3fc55a11	1.5418111
41	0xbfae64ea	-1.3624547
42	0x3fa54d56	1.2914226
43	0x406043d6	3.5041404
44	0x3ea5b857	0.32367203
45	0xbf040067	-0.51563114
46	0x3ffe91c2	1.9888232
47	0x3fdf182f	1.7429255
48	0xbf7051b3	-0.93874663
49	0x40a463a0	5.1371613
50	0x3e16f6fa	0.14742652
51	0xbf5b70a7	-0.8571877
52	0x3dbc4cb8	0.091943204
53	0x3fc874eb	1.566068
54	0xc053f82a	-3.3120217
55	0xbdbd0fa8	-0.09231502
56	0xc0027596	-2.0384269
57	0x4049655e	3.146812
58	0x4045da46	3.0914474
59	0xbd7a0fab	-0.0610501
60	0xbe37b850	-0.17941403
61	0x3e8aa1e5	0.2707664
62	0x4009159a	2.1419435
63	0x3f1d0f35	0.6135133
64	0xbda6be78	-0.08141798
65	0x3b5d0900	0.0033727288
66	0x3dac34aa	0.084084824
67	0xbd3e1244	-0.04640414
68	0xbd8b08cc	-0.06788787
69	0xbcf2f6e8	-0.02965875
70	0xbb31eac0	-0.0027147979
71	0x3d2aac50	0.041668236
72	0xbbad4620	-0.0052879006
73	0xbdb71d1e	-0.089411005
74	0xbdd75466	-0.105141446
75	0xbdee2064	-0.11627272
76	0x3dd27a12	0.10277189
77	0x3d3d919c	0.046281442
78	0xbcc44fe0	-0.023963869
79	0xbd20b550	-0.039235413
80	0x3daf0ebc	0.08547732
81	0x3ddb0b0e	0.10695468
82	0x3d634f84	0.055495754
83	0xbda9ff3c	-0.08300635
84	0x3d737e70	0.059446752
85	0xbd2896cc	-0.041159436
86	0xbd944f68	-0.07241708
87	0x3c401340	0.01172334
88	0x3ce0e7c8	0.027454272
89	0xbda7a040	-0.08184862
90	0x3caef6c8	0.021357909
91	0xbce13070	-0.027488917
92	0xbd8f4b3e	-0.06996773
93	0xbd054090	-0.032532275
94	0xbdbdd464	-0.09269026
95	0x3d132da4	0.0359322
96	0xbd8b941c	-0.06815359
97	0x3d9086a6	0.07056932
98	0x3d2877e4	0.04112996
99	0x3db40c7a	0.08791442
100	0xbdf66910	-0.12031758
101	0x3d9d9538	0.07694477
102	0xb9916c00	-0.0002773702
103	0xbdab58e4	-0.08366564
104	0xbde36544	-0.11103299
105	0x39affe00	0.00033567846
106	0x3defad10	0.11702931
107	0x3d47cec8	0.048781186
108	0x3dc262b6	0.09491484
109	0xbd928d5a	-0.07155867
110	0x3dbbc90a	0.091692045
111	0x3d96bb76	0.07359974
112	0x3d88b2dc	0.0667474
113	0xbd0c1374	-0.03419824
114	0x3ca196c0	0.019725204
115	0xbd35cd50	-0.044385254
116	0xbd91832a	-0.07105096
117	0x3de4c638	0.1117062
118	0xbd49decc	-0.04928474
119	0xbdabf4f8	-0.083963335
120	0x3dc4ca24	0.09608868
121	0xbd83b520	-0.06431031
122	0x3d88f500	0.06687355
123	0xbd667974	-0.05626817
124	0xbd2083d8	-0.039188236
125	0xbc4a7470	-0.012356862
126	0x3dee5014	0.116363674
127	0xbd69780c	-0.05699925
128	0xbfcea2e9	-1.6143466
129	0xbef38169	-0.4755967
130	0x3cc2231c	0.023698382
131	0xc04d34ac	-3.2063398
132	0x3e7a3de1	0.24437667
133	0xbf850a5e	-1.0393789
134	0xbf844428	-1.03333
135	0xbf6725fb	-0.9029233
136	0xbe8631b9	-0.2620981
137	0x3fbd6d41	1.4798967
138	0x40169cc1	2.3533175
139	0x3fe87dbb	1.816337
140	0xc016d91f	-2.357002
141	0x3e2cb43b	0.16865627
142	0x3ec7cf18	0.39025187
143	0x3fa6bf3b	1.3027109
144	0xbfbf7534	-1.4957643
145	0xc0555275	-3.3331578
146	0xbf8dc7df	-1.1076621
147	0x3fdd2ed0	1.7279911
148	0xbf2affd4	-0.6679661
149	0x3f9d6777	1.22972
150	0x3fc7ba89	1.5603801
151	0x3f779528	0.9671197
152	0xbf53951c	-0.826494
153	0xbf3aa161	-0.72902495
154	0x3fb549bb	1.4163126
155	0xbf14dd8a	-0.5815054
156	0x3f771005	0.9650882
157	0x3fb3cb63	1.4046444
158	0x3e3d8aa6	0.18509921
159	0xbf2c4172	-0.6728736
160	0xc0143ee0	-2.3163376
161	0xbdfa62bd	-0.12225864
162	0x3fb4013c	1.4062877
163	0x3fee9763	1.863995
164	0x40011efd	2.0175164
165	0xbf3c23b1	-0.7349196
166	0x3f0b227c	0.54349494
167	0xbffecb3f	-1.9905776
168	0x3f78b146	0.971455
169	0x3f4d5a82	0.8021623
170	0xbe38ad70	-0.18034911
171	0xbedad248	-0.42738557
172	0xc011624b	-2.2716243
173	0x40311ca1	2.7673724
174	0x3e7cd4d6	0.24690565
175	0x4073ae34	3.8075075
176	0x3f7806ff	0.96885675
177	0xbeaf51e7	-0.34242174
178	0x4029699b	2.6470706
179	0xbfffad68	-1.9974794
180	0x40380a3b	2.8756244
181	0xbd1f2077	-0.03884932
182	0xbf84a05c	-1.0361438
183	0xc0303357	-2.7531335
184	0xbe075d69	-0.13219227
185	0xbfb6a30d	-1.4268509
186	0xbeb74410	-0.35794115
187	0x3f9679d4	1.1755929
188	0xbf9fc102	-1.2480776
189	0xc01fb211	-2.4952433
190	0xbf802fb3	-1.0014557
191	0xc00796ef	-2.1185873
192	0x3fa97a95	1.3240534
193	0x4005a52c	2.0882063
194	0x4028de69	2.6385748
195	0xbfd56ad3	-1.6673225
196	0x3feaa63c	1.8331981
197	0x400fdc8a	2.2478356
198	0x3fe17946	1.7615135
199	0xbe727857	-0.23678719
200	0xbf303eb0	-0.68845654
201	0xc08e01e8	-4.4377327
202	0xc08121f2	-4.0353937
203	0x3e00def1	0.12585045
204	0xbfac2ac0	-1.3450546
205	0x3f716d5e	0.94307506
206	0x3f157627	0.5838341
207	0xbf0969fc	-0.53677344
208	0x3e0621f3	0.13098888
209	0x3e6a8e19	0.22905768
210	0x3f5b50da	0.85670245
211	0xbf8a0944	-1.0784078
212	0x3f3817e6	0.71911466
213	0x405aa429	3.4162695
214	0x406476a5	3.5697415
215	0xbfe0d89c	-1.7566104
216	0x4048e81f	3.1391675
217	0x4053552c	3.3020735
218	0x400e808e	2.2265964
219	0x402829d5	2.6275532
220	0xc03bfe0c	-2.9373808
221	0xc015b487	-2.3391435
222	0xbff921e7	-1.9463471
223	0xbf969187	-1.1763161
224	0xbfb7fcc6	-1.4374015
225	0x3fadb776	1.3571613
226	0xbf8b723d	-1.0894238
227	0xbe6f950b	-0.23396699
228	0x3fa98da8	1.3246355
229	0x400feb07	2.24872
230	0x4020a9f2	2.5103726
231	0x3e2dd027	0.16973935
232	0x40227152	2.5381665
233	0xbe921d18	-0.28537822
234	0x3fce54a3	1.6119579
235	0x40143564	2.3157587
236	0xbe6d90e1	-0.23199798
237	0xbedb26c9	-0.42803028
238	0x4038e08a	2.8887048
239	0xc0761ce5	-3.8455136
240	0xbf392992	-0.72329056
241	0x3fa30c0b	1.273805
242	0xbe9246b4	-0.28569567
243	0xc020df4a	-2.5136285
244	0xbf3bd3b4	-0.7336991
245	0x40186433	2.3811157
246	0xbffd4280	-1.9785919
247	0x3f133be5	0.57513267
248	0xbfa815ff	-1.3131713
249	0x402556e0	2.5834274
250	0x3feaef02	1.8354189
251	0x3fa9b778	1.3259115
252	0x3de64886	0.112443015
253	0x3e33d3aa	0.17561212
254	0xbf86a523	-1.0519146
255	0xbfbac000	-1.4589844

lstm.bias_hh_l0 f4 [256]
0	0x3fb44ee4	1.4086576
1	0x3e4ffd35	0.20311435
2	0x4048f36c	3.1398573
3	0xbfd7551b	-1.6822847
4	0xbecb915c	-0.39759338
5	0x3fcff155	1.6245524
6	0x3fcafcca	1.5858395
7	0xbd90b138	-0.07065052
8	0xc0956730	-4.668846
9	0xbdff6a0e	-0.124714
10	0x3e6b556a	0.22981802
11	0xbe1ef349	-0.15522493
12	0xbf731612	-0.9495555
13	0xc0956a3e	-4.669219
14	0x3f1ebf67	0.62010807
15	0xc005d4d5	-2.0911152
16	0x3edca217	0.43092415
17	0xbf937cc7	-1.1522454
18	0x3fc89935	1.5671755
19	0xc02e8bcf	-2.7272832
20	0xbf2173af	-0.63067144
21	0x401819f7	2.3765848
22	0x4060f2b8	3.5148144
23	0xbf9af7fa	-1.2106926
24	0x400474d0	2.0696297
25	0x40641b14	3.5641527
26	0x403a56ff	2.9115598
27	0x4013a6b3	2.3070495
28	0xbfafaab2	-1.3723967
29	0xbfc0a8b2	-1.5051482
30	0xbf873871	-1.05641
31	0x3fdcadca	1.7240536
32	0xbf6995cc	-0.91244197
33	0xc02b5f31	-2.677685
34	0xbff6c8af	-1.9279994
35	0xc01fdf84	-2.4980173
36	0x3db7ad59	0.0896861
37	0x3f1d0c06	0.6134647
38	0x404e4dd4	3.2235003
39	0x3fd08024	1.6289105
40	0x3fc63361	1.548443
41	0xbfa3cdcb	-1.2797178
42	0x3f96652b	1.1749624
43	0x405e9c55	3.4782917
44	0x3e809592	0.25114113
45	0xbf16c815	-0.5889905
46	0x3ff316a0	1.899128
47	0x3fd34349	1.6504909
48	0xbf6d2545	-0.92634994
49	0x40a1f8a2	5.0616007
50	0x3e1ad427	0.15119992
51	0xbf248a1e	-0.6427325
52	0x3e0786ba	0.13234988
53	0x3fda4edd	1.7055317
54	0xc04bc511	-3.183903
55	0x3d4007e5	0.04688253
56	0xbff72376	-1.9307697
57	0x404629dc	3.096305
58	0x4050ef0e	3.2645907
59	0xbd1dfae7	-0.038569357
60	0xbdf66827	-0.12031584
61	0x3e9242e7	0.28566667
62	0x40131e35	2.2987187
63	0x3f0e9f92	0.55712235
64	0x3cb33c00	0.021879196
65	0x3d5145d4	0.051091984
66	0x3dc1b83c	0.09458968
67	0xbd414ff4	-0.04719539
68	0x3de8dd2a	0.11370309
69	0x3cdb9ea0	0.026809037
70	0x3dfcd3ea	0.12345107
71	0xbde41be6	-0.11138134
72	0xbcc9b6f8	-0.02462338
73	0xbd352be8	-0.044231325
74	0xbd6ea688	-0.058264285
75	0x3d29fd94	0.041501597
76	0xbd83411e	-0.064089045
77	0x3dcf5c1a	0.10124989
78	0x3d6b3838	0.05742666
79	0xbd6bea84	-0.0575967
80	0x3c9f6608	0.019457832
81	0x3ce395a0	0.027781308
82	0x3defc33a	0.117071584
83	0x3d58ebd8	0.052959293
84	0x3de85f62	0.11346318
85	0xbd053cd8	-0.03252873
86	0xbd9dfa40	-0.07713747
87	0xbdc35548	-0.095377505
88	0x3c15faf0	0.009154066
89	0xbdcdef1e	-0.100553736
90	0xbcef4900	-0.029209614
91	0xbd7b8f3c	-0.061415896
92	0x3d3c8344	0.046023622
93	0x3be74800	0.0070581436
94	0x3cfd1d40	0.030897737
95	0x3dfe6ca4	0.12423065
96	0xbdc4134c	-0.09573993
97	0x3cc63f98	0.024200246
98	0xbc5cc7e0	-0.013475388
99	0x3d9e4e98	0.07729834
100	0x3b317f00	0.0027083755
101	0x3d73ab6c	0.059489653
102	0xbddf380c	-0.10899362
103	0xbdfa72e2	-0.122289434
104	0x3c9f3138	0.019432649
105	0x3df2117e	0.118197426
106	0x3d584268	0.052797705
107	0xbcdada20	-0.026715338
108	0xbc5ab9b0	-0.013349935
109	0xbd206b3c	-0.039164767
110	0xbc86bb18	-0.016446635
111	0xbdd009b4	-0.10158101
112	0xbc0d7e60	-0.008636087
113	0xbad32600	-0.0016109347
114	0x3d8f5f66	0.07000618
115	0xbcd34f90	-0.025794774
116	0xbd507808	-0.05089572
117	0xbd52ca48	-0.05146244
118	0xba42d900	-0.0007432848
119	0x3d08bba0	0.03338206
120	0x3db1f46a	0.086891964
121	0xbc7b7cb0	-0.015349552
122	0xbdf4b5e6	-0.11948757
123	0x3c80b748	0.015712395
124	0x3dae1d90	0.08501732
125	0x3d77e9ac	0.06052558
126	0x3ccc5e10	0.024947196
127	0xbdcf3320	-0.10117173
128	0xbfdf7a72	-1.7459242
129	0xbefa7e49	-0.48924473
130	0x3bdeee07	0.0068032774
131	0xc04b4e92	-3.1766706
132	0x3ebe761b	0.37199482
133	0xbf5459ed	-0.82949716
134	0xbf86db93	-1.0535759
135	0xbf475735	-0.7786744
136	0xbed711d2	-0.42005783
137	0x3fc1a612	1.5128806
138	0x4016e2b6	2.3575873
139	0x3ff9fcd7	1.9530286
140	0xc0174cf3	-2.3640716
141	0x3e6d5798	0.23177946
142	0x3eb94126	0.36182517
143	0x3fb1d385	1.3892676
144	0xbfbca800	-1.473877
145	0xc04fb92f	-3.2456777
146	0xbf9d81e7	-1.2305268
147	0x3fe76e2f	1.80805
148	0xbedd140c	-0.43179357
149	0x3f814c42	1.0101397
150	0x3fbdcef3	1.4828781
151	0x3f491d62	0.7856046
152	0xbf4b0d57	-0.7931723
153	0xbf64ed86	-0.8942493
154	0x3fb8391f	1.4392432
155	0xbf22d43e	-0.63605106
156	0x3f84f5dc	1.038753
157	0x3fa66089	1.299821
158	0xbb8f8085	-0.0043793344
159	0xbf3bc328	-0.7334466
160	0xc007e1a5	-2.1231472
161	0xbdd06937	-0.10176318
162	0x3fc1007a	1.507827
163	0x3fec03e7	1.8438691
164	0x3feb4271	1.8379651
165	0xbf347374	-0.7048867
166	0x3ec301ac	0.38087213
167	0xc002ef7d	-2.0458672
168	0x3f690bc2	0.91033566
169	0x3f4dde69	0.80417496
170	0xbd7e0529	-0.06201664
171	0xbe98e196	-0.29859608
172	0xc00bf40b	-2.1867702
173	0x40391203	2.8917243
174	0x3ec29e33	0.3801132
175	0x40657a05	3.5855725
176	0x3f8fdecb	1.1239866
177	0xbea381d8	-0.31935
178	0x402114c7	2.5168931
179	0xc0008a88	-2.0084553
180	0x4038ab56	2.8854575
181	0x3ceedef0	0.02915904
182	0xbf924b39	-1.1429206
183	0xc03b0042	-2.9218907
184	0xbd32c233	-0.043642234
185	0xbfba1b6b	-1.4539617
186	0xbe54c63a	-0.20778742
187	0x3f8a1fe3	1.0790981
188	0xbf931f70	-1.1493969
189	0xc016c571	-2.3558009
190	0xbf6df773	-0.929557
191	0xc0050557	-2.078451
192	0x3fa2eb4a	1.2728055
193	0x3ffed674	1.9909196
194	0x40237f95	2.554662
195	0xbfd1882a	-1.6369679
196	0x3fda2cb3	1.7044891
197	0x40119bd0	2.275135
198	0x3fd163a8	1.6358538
199	0xbea24122	-0.31690317
200	0xbf4874e8	-0.78303385
201	0xc08a23aa	-4.3168535
202	0xc08200d3	-4.0626006
203	0x3e04f8bf	0.12985514
204	0xbfa6bc94	-1.30263
205	0x3f8868f0	1.0657024
206	0x3f3b5c4e	0.7318772
207	0xbf0d9c2c	-0.55316424
208	0x3e589184	0.2114926
209	0x3e6852df	0.22687863
210	0x3f58c6bb	0.8467824
211	0xbf8fed31	-1.124426
212	0x3f482548	0.78181887
213	0x405805a7	3.375345
214	0x406bacd2	3.682423
215	0xbfd52c7c	-1.66542
216	0x40405376	3.005094
217	0x405536a7	3.3314607
218	0x40105b39	2.2555678
219	0x4034e44e	2.8264346
220	0xc03cf9ba	-2.952742
221	0xc00852e5	-2.1300595
222	0xbfe3a42f	-1.778448
223	0xbf90b536	-1.1305301
224	0xbfa09014	-1.2543969
225	0x3fa8afd3	1.3178657
226	0xbf9d0c04	-1.2269292
227	0xbe0bf70b	-0.13668458
228	0x3faa8fe0	1.3325157
229	0x4011730c	2.272647
230	0x401cdfb2	2.4511533
231	0x3dd31abb	0.10307833
232	0x402b638e	2.6779513
233	0xbe9a6d1f	-0.30161378
234	0x3fd18d92	1.6371329
235	0x4014b80d	2.3237336
236	0xbe8355e8	-0.2565148
237	0xbed7bc6b	-0.4213594
238	0x4039830c	2.8986235
239	0xc077ffbb	-3.8749835
240	0xbf4fa860	-0.81116295
241	0x3f9ad8ee	1.2097452
242	0xbea27d53	-0.3173624
243	0xc019c6c6	-2.4027572
244	0xbf755495	-0.95832187
245	0x4016dd36	2.3572516
246	0xbfe44c78	-1.7835836
247	0x3f366b08	0.71257067
248	0xbf939c59	-1.1532089
249	0x40292c93	2.6433456
250	0x3ffdfdaf	1.9843043
251	0x3fb90bbd	1.4456707
252	0x3e47c25e	0.19507739
253	0x3d395adf	0.045252677
254	0xbf91598e	-1.1355455
255	0xbfb12800	-1.3840332

lstm.weight_ih_l1 f4 [256, 64]
0	0xc080c006	-4.0234404
1	0x3ffff11b	1.9995455
2	0x3fdc19e3	1.71954
3	0xbb77cf93	-0.0037812933
4	0xbeeeccc5	-0.46640602
5	0x3dbcc350	0.092169404
6	0x3f3c781d	0.7362078
7	0xbf903be2	-1.1268275
8	0xbcd67bdb	-0.026182106
9	0xbd7765de	-0.060399882
10	0xbfdd6d02	-1.7298892
11	0xbf6b50b3	-0.9192001
12	0xbfaa66f7	-1.3312672
13	0x3f896cfe	1.0736387
14	0x3eeb9ffe	0.46020502
15	0x3f7470ba	0.9548451
16	0xc0654b73	-3.58273
17	0xbf61900b	-0.8811042
18	0x3f28d420	0.6594868
19	0x3eae681f	0.34063813
20	0xc09901fc	-4.781492
21	0xbfd6f71a	-1.679416
22	0xc0512fb8	-3.2685375
23	0xbfee0bd3	-1.8597358
24	0x3f310894	0.69153714
25	0x3f6be228	0.9214196
26	0xbf2e68e2	-0.6812879
27	0x3e854ed4	0.26036704
28	0x3f6673bb	0.9002034
29	0xbe97fe81	-0.2968636
30	0x3f297b68	0.6620393
31	0xc0438672	-3.055081
32	0x404dbac7	3.214525
33	0x3fb4c9e2	1.412411
34	0x3f67b4e6	0.90510404
35	0xbfb7cd55	-1.4359537
36	0xbcae4f1e	-0.02127796
37	0x402a69c4	2.6627054
38	0xc01a20d8	-2.4082546
39	0x3d2c2c6a	0.042034544
40	0xbef6ad76	-0.48179215
41	0x3fe7ccfd	1.8109432
42	0xbeafaae6	-0.34310073
43	0xbddd0bb0	-0.10793245
44	0xbf8d38af	-1.1032923
45	0x3f957f53	1.1679481
46	0x3eb5f851	0.35541013
47	0xc0492758	-3.1430264
48	0x3f9a1c21	1.2039834
49	0xc09833b1	-4.75631
50	0x3fd32605	1.6495978
51	0xc01e0f1c	-2.4696722
52	0x3fdae872	1.7102187
53	0xc08a503b	-4.3222938
54	0x4027fd29	2.6248267
55	0xc0141733	-2.313916
56	0x3f94bbbc	1.1619792
57	0x3f9aa826	1.2082565
58	0x4039bb1e	2.9020457
59	0xbfe060f8	-1.7529593
60	0xc0da4522	-6.820939
61	0xbf8fa1b6	-1.1221225
62	0x3f0ab322	0.54179585
63	0x3e9f183d	0.3107318
64	0xc04d4b98	-3.2077389
65	0x3e096ffb	0.13421623
66	0x4085017c	4.156431
67	0xc0008f01	-2.0087283
68	0xc00cc85c	-2.199729
69	0x3f1c3869	0.61023575
70	0x3e5b73ac	0.21430844
71	0x3d1c156b	0.038106363
72	0x3f604921	0.87611586
73	0xbf34846b	-0.70514554
74	0x402344b1	2.5510676
75	0xbe8eb7d7	-0.27874634
76	0x3ebe748e	0.371983
77	0x3ec4352a	0.3832181
78	0xbe8c931a	-0.2745598
79	0xc0c2d6b5	-6.0887094
80	0x3eeee6e9	0.46660545
81	0xc05589a9	-3.336527
82	0x3f95ccf9	1.1703178
83	0xbde98f31	-0.11404265
84	0xbf840c73	-1.0316299
85	0xc06f1b94	-3.7360582
86	0xc00b6c00	-2.1784668
87	0x3f1a795f	0.6034145
88	0xbfa2d7fa	-1.2722161
89	0x3fb44d0c	1.4086013
90	0xc0a0bd97	-5.0231433
91	0xc0b73eff	-5.72644
92	0x400158c1	2.021042
93	0xbf82ad79	-1.020919
94	0x3f87e843	1.0617756
95	0xc0934396	-4.602
96	0xc0138fe1	-2.3056567
97	0x3fcdb62e	1.6071222
98	0x3f7a4ab4	0.9777024
99	0x3fa2c865	1.2717406
100	0x3f98595d	1.1902272
101	0x3fa793e5	1.3092009
102	0xc077e648	-3.8734303
103	0xbf45662a	-0.77109015
104	0x3e8c8f40	0.2745304
105	0xbf811f01	-1.0087587
106	0xbf7f65c3	-0.9976465
107	0xc007d128	-2.122141
108	0x3f5a29c9	0.8522001
109	0x3fac222b	1.3447927
110	0xc03fec08	-2.9987812
111	0x3f932105	1.1494452
112	0x40096c3c	2.147231
113	0x3f0b0fb0	0.5432081
114	0x404b7261	3.1788561
115	0xc01d385e	-2.4565654
116	0xc0a806f5	-5.2508492
117	0x4050fcbc	3.2654257
118	0xbeb9d412	-0.3629461
119	0xc02cca62	-2.6998525
120	0x3ff84865	1.9397093
121	0x408a4cfe	4.3218985
122	0xbd2e27a6	-0.04251828
123	0x40042bc0	2.0651703
124	0x3f8eff61	1.1171685
125	0xbfe8048a	-1.8126385
126	0x3ed7d886	0.42157382
127	0x3f09860f	0.5372018
128	0x3d4a68b2	0.04941625
129	0xbf97323d	-1.1812207
130	0xbe99a698	-0.30009913
131	0xbe52d587	-0.20589267
132	0x3f9ef931	1.2419797
133	0x3f09ad06	0.5377964
134	0xbf524d83	-0.82149523
135	0xc0153c0b	-2.3317897
136	0x3fbb1f30	1.4618893
137	0xc032ef04	-2.7958384
138	0xbed0c809	-0.40777615
139	0xc0000b07	-2.000673
140	0x3eba9bdb	0.36447033
141	0xbfb1d042	-1.389168
142	0xbf376274	-0.716346
143	0x3f3f01c6	0.7461208
144	0x40fbd6fc	7.869993
145	0xba7ef356	-0.0009725591
146	0x3c8b0491	0.01696995
147	0x401b472e	2.4262195
148	0x40bc60c0	5.8868103
149	0xbfe6b34f	-1.8023471
150	0xc08e3cec	-4.4449368
151	0x3f12457e	0.57137287
152	0x40b46aef	5.6380534
153	0x3ff3bd1b	1.9042085
154	0xc0a77724	-5.2332935
155	0x3e1c0945	0.15237911
156	0xbeeb988c	-0.46014822
157	0x406ce9bb	3.7017658
158	0x3ee8d1ce	0.45472568
159	0x400a81d2	2.1641736
160	0x3ee7fe67	0.4531128
161	0x401267cd	2.2875855
162	0xbe0465ce	-0.1292946
163	0xbede31b2	-0.4339729
164	0xbf8024b1	-1.0011197
165	0x3e3125e2	0.17299607
166	0xbf82ad7a	-1.0209191
167	0xbfe67614	-1.8004785
168	0xc03300de	-2.796928
169	0x4027cfa4	2.6220484
170	0x3fc4f67a	1.5387719
171	0x3fd5b9c1	1.6697313
172	0xbf6226eb	-0.88340634
173	0xc000e0d0	-2.0137215
174	0xbf5af5fe	-0.85531604
175	0x3ed15da8	0.40891767
176	0xbf8be506	-1.0929267
177	0x409e5567	4.947925
178	0xbf6bd227	-0.9211754
179	0xbf01a07a	-0.5063549
180	0xbfbc6d15	-1.4720789
181	0xbf906855	-1.128184
182	0xc00b76a0	-2.1791153
183	0xbf8978dd	-1.074001
184	0xc013bd77	-2.308439
185	0x40a545c7	5.1647677
186	0xbe98163a	-0.29704458
187	0xbfcac260	-1.5840569
188	0xbedc2ebb	-0.43004403
189	0x3dd63bff	0.10460662
190	0x3f825d1b	1.0184664
191	0x3ffb78ce	1.9646242
192	0xbf8ed59d	-1.115894
193	0xbf6e904b	-0.93188924
194	0xbde41a79	-0.11137862
195	0xbe5f71e5	-0.21820791
196	0x3fb8bfbf	1.4433516
197	0x3fd36542	1.6515276
198	0xc054a4e9	-3.3225653
199	0xc082aa4b	-4.0832877
200	0x3ef613e3	0.48062047
201	0xc01db176	-2.4639564
202	0xbf2390cd	-0.63892823
203	0x3ff8a1b5	1.9424349
204	0x3feee1e7	1.866269
205	0x3e795146	0.2434741
206	0x403d0a4b	2.9537532
207	0x4032266b	2.7835948
208	0x3f830971	1.0237256
209	0xc0137935	-2.304273
210	0x3fc396ed	1.5280434
211	0x40055c16	2.0837455
212	0x3f788091	0.97071177
213	0x3fbd39cc	1.4783263
214	0xbed4c592	-0.41556984
215	0xc04d2dc0	-3.2059174
216	0x4095549c	4.6665783
217	0x3f3db3fd	0.74102765
218	0xbed20cd5	-0.41025415
219	0xc034dc2e	-2.8259387
220	0x3ef126ee	0.47100013
221	0xc03504fa	-2.8284287
222	0x3ea0ca21	0.31404212
223	0xbf4c19f5	-0.7972711
224	0x3faa41f7	1.3301381
225	0x3f9c4a27	1.221013
226	0x3ec83d34	0.39109194
227	0x4010beb4	2.2616396
228	0xbf9b5048	-1.2133875
229	0x3f949f97	1.1611203
230	0x40771ba3	3.8610618
231	0xbfb36549	-1.4015285
232	0xbf02014c	-0.5078323
233	0x406e2bf4	3.7214327
234	0x4019813a	2.3985124
235	0xc0695866	-3.6460204
236	0xc0183d58	-2.3787441
237	0x4064664e	3.5687442
238	0x3f8d94ae	1.1060998
239	0x408a5728	4.323139
240	0x3ef5aa9f	0.47981736
241	0xc09f3c9b	-4.976148
242	0xbdb527eb	-0.088455044
243	0xc095bb59	-4.6791196
244	0x403cc144	2.949296
245	0xc0bfe4a2	-5.9966593
246	0x3fa1bdaa	1.2636006
247	0xbf1b1740	-0.6058235
248	0xbf68d433	-0.9094879
249	0x3fb11b30	1.3836422
250	0x3fe4d530	1.787756
251	0xbf4b7840	-0.7948036
252	0xc0fe6af1	-7.9505544
253	0x3e8fbe6c	0.28074968
254	0x40081338	2.126173
255	0x400947da	2.1450105

lstm.weight_hh_l1 f4 [256, 64]
0	0xbdc14c56	-0.09438388
1	0x3dc0ad5e	0.09408067
2	0x3d150d40	0.03638959
3	0xbdaabff4	-0.083373934
4	0xbc21ebf0	-0.009882912
5	0x3dd23fc8	0.102660716
6	0xbcfcdaa0	-0.030865967
7	0x3cb45498	0.022012994
8	0x3df0c8ce	0.117570505
9	0xbd4a0c68	-0.049328238
10	0x3bd650c0	0.006540388
11	0x3d99d67a	0.07511611
12	0x3de4e56c	0.11176571
13	0x3c7cc2c0	0.015427291
14	0xbc4f5fb0	-0.012657091
15	0xbdba4790	-0.09095681
16	0x3d420ac4	0.04737355
17	0x3cc48de8	0.023993447
18	0xbcc463b8	-0.02397333
19	0x3c4cb5f0	0.012494549
20	0xbdb83e2a	-0.08996232
21	0x3d8a982c	0.06767306
22	0xbda7a400	-0.081855774
23	0x3d64faa0	0.055903077
24	0xbdf2e9e6	-0.11861019
25	0xbd78ce18	-0.06074342
26	0xbca578e8	-0.020199254
27	0xbb716180	-0.0036831796
28	0x3df5e192	0.12005915
29	0x3de2fabc	0.1108298
30	0xbdfbd8c4	-0.12297204
31	0x3d077760	0.03307283
32	0xbdb62dd6	-0.08895461
33	0x3dea7bc6	0.11449389
34	0x3d2dccf8	0.0424318
35	0x3dd29946	0.10283141
36	0x3b92ad20	0.0044762045
37	0x3d29c50c	0.041447684
38	0xbd6cb91c	-0.05779372
39	0xbda7c732	-0.0819229
40	0xbd9e42c6	-0.0772758
41	0x3dff9972	0.12480439
42	0x3cd268c8	0.02568473
43	0xbdda8d0c	-0.10671434
44	0xbd774a98	-0.060373873
45	0xbd88d246	-0.066807315
46	0xbd954810	-0.072891355
47	0xbddd4f3e	-0.1080613
48	0xbd5ba174	-0.05362077
49	0xbc0bf060	-0.008541197
50	0x3de75650	0.1129576
51	0xbdc984ee	-0.098398075
52	0x3d6ebfcc	0.05828838
53	0x3dd9f082	0.10641576
54	0xbcfc26f0	-0.030780286
55	0xbdbd2b42	-0.092367664
56	0x3d959a3e	0.0730481
57	0x3dbeabc0	0.093101025
58	0xbdbbf6b6	-0.09177916
59	0x3cf19d20	0.029493868
60	0xbca546f0	-0.020175427
61	0x3d93d6ee	0.07218729
62	0x3d4472b0	0.047960937
63	0xbdbb32fc	-0.09140584
64	0xbd5325e4	-0.051549807
65	0xbd4e1e0c	-0.050321624
66	0xbd97b6a4	-0.07407883
67	0xbd9b5402	-0.075843826
68	0x3c2221f0	0.009895787
69	0x3db26a3c	0.08711669
70	0xbd29dccc	-0.041470334
71	0xbda5e8b6	-0.08101027
72	0xbc732d00	-0.014842272
73	0x3dd4c90a	0.10389908
74	0xbde6edd6	-0.11275832
75	0x3d533128	0.05156055
76	0xbc17eda0	-0.009272963
77	0x3df8144a	0.12113245
78	0xbdfbfb74	-0.1230382
79	0xbde1ce12	-0.11025633
80	0x3d9119a0	0.07084966
81	0x3cbf9488	0.023386255
82	0x3b8b91e0	0.004259333
83	0x3dd618c6	0.10453944
84	0xbd760658	-0.060064644
85	0x3d9038fe	0.070421204
86	0xbb864680	-0.0040977597
87	0x3c9e8d18	0.019354388
88	0xbc6de360	-0.014519542
89	0xbd78c494	-0.060734347
90	0x3dcb3228	0.09921676
91	0x3d43d618	0.047811598
92	0x3dfd4ff0	0.123687625
93	0x3d820552	0.06348671
94	0x3d26c5d4	0.040716007
95	0x3df5c3ac	0.12000212
96	0xbd146040	-0.036224604
97	0x3c9878c0	0.018612266
98	0xbdfba986	-0.122881934
99	0xbd728334	-0.059207156
100	0x3d8080cc	0.06274566
101	0xbddc0bf2	-0.10744466
102	0x3cb595e0	0.022166193
103	0x3cf4fa40	0.029904485
104	0xbd8f8af4	-0.07008925
105	0xbd44b720	-0.048026204
106	0x3d8d0cf2	0.06887235
107	0x3dadf24e	0.084934816
108	0x3cc33160	0.023827255
109	0xbda55070	-0.08071983
110	0x3a3b8600	0.00071534514
111	0x3d4eba1c	0.050470456
112	0xbdd276d4	-0.10276571
113	0xbd9e0bde	-0.07717107
114	0x3c117d10	0.008879915
115	0x3d16eae0	0.036845088
116	0x3df95b30	0.12175596
117	0x3c8dd1b0	0.0173119
118	0x3d4b51d0	0.04963857
119	0x3dec91ac	0.11551222
120	0xbd94fee0	-0.07275176
121	0xbdf568b4	-0.11982861
122	0xbdf2ecc2	-0.11861564
123	0xbd103774	-0.035209134
124	0x3ddc9494	0.107705265
125	0xbd93ad38	-0.07210773
126	0xbd1bc014	-0.038024977
127	0x3db888ce	0.090104684
128	0xbd2566f0	-0.040381372
129	0x3d487580	0.04894018
130	0xbdd9c51a	-0.10633297
131	0x3d74afdc	0.059738025
132	0xbdc70000	-0.09716797
133	0x3d70cf1c	0.058791265
134	0x3d4e0a3c	0.05030273
135	0xbd5b8c80	-0.053600788
136	0x3da4ee42	0.080532566
137	0xbdb67dc2	-0.08910705
138	0xbd079bbc	-0.033107504
139	0xbbc272c0	-0.0059340894
140	0x3db96754	0.090529114
141	0x3d0c8c78	0.03431365
142	0xbc200c60	-0.009768575
143	0xbd3affdc	-0.045654163
144	0x3dd9bd94	0.10631862
145	0x3c9c69f8	0.019093499
146	0xbdcacb28	-0.0990203
147	0x3cbc8390	0.023011953
148	0xbdb050ea	-0.08609183
149	0xbdca82c8	-0.09888226
150	0x3dcce86e	0.1000527
151	0xbbbf25e0	-0.0058333725
152	0x3d20d690	0.039267123
153	0xbd4f45c8	-0.050603658
154	0x3dda1f5c	0.106505126
155	0x3ceb8c80	0.028753519
156	0x3dfdf964	0.12401083
157	0x3d3b457c	0.045720562
158	0x3cb28080	0.02178979
159	0x3d3a84c4	0.04553677
160	0xbde7e92e	-0.11323772
161	0x3df30e00	0.11867905
162	0x3cee3738	0.029079065
163	0xbde0f0b8	-0.109834135
164	0x3d49d9e8	0.049280077
165	0xbd42f4c4	-0.047596708
166	0xbdccc1a8	-0.099978745
167	0xbd9e5a40	-0.077320576
168	0x3d8d69e2	0.06904961
169	0x3dd4a698	0.10383338
170	0xbdeed340	-0.116613865
171	0xbda1ca98	-0.0789997
172	0xbd2960dc	-0.041352138
173	0x3cb508a0	0.02209884
174	0x3ba29c80	0.004962504
175	0xbdcbc978	-0.099505365
176	0xbd81cbf0	-0.06337726
177	0x3d9b2868	0.07576066
178	0xbdfd20c8	-0.12359768
179	0xbb597200	-0.0033179522
180	0x3bd90e20	0.0066239983
181	0xbdb8d092	-0.09024157
182	0xbc4206a0	-0.0118424
183	0x3d024f30	0.0318138
184	0x3ca78418	0.02044873
185	0x3c9a3858	0.018825695
186	0xbd0b94d4	-0.03407748
187	0x3d5be30c	0.053683326
188	0x3c60b7b0	0.0137156695
189	0xbdcab27e	-0.09897326
190	0xbdaa833c	-0.08325812
191	0x3d870246	0.065922305
192	0xbd55f194	-0.05223234
193	0x3d0c164c	0.03420095
194	0x3b8264c0	0.0039792955
195	0xbdeb7a3c	-0.11497924
196	0xbd32840c	-0.04358296
197	0x3ab9cb00	0.0014174879
198	0xbdf12e58	-0.117764175
199	0xbce5f7e8	-0.028072312
200	0x3d57d0dc	0.05268942
201	0xbbdc7dc0	-0.0067288578
202	0x3d8ea3d2	0.0696484
203	0x3cb96990	0.022633344
204	0xbdbae500	-0.091257095
205	0xbded9d58	-0.116022766
206	0x3de578a2	0.112046495
207	0x3d87e77e	0.066359505
208	0x3de14848	0.11000115
209	0xbd98ab0c	-0.074544996
210	0x3cdce290	0.026963502
211	0x3dbc9754	0.09208551
212	0x3d55719c	0.0521103
213	0xbcba1208	-0.022713676
214	0x3b14bd40	0.002269581
215	0xbcb45df0	-0.02201745
216	0xbd68c9c0	-0.05683303
217	0xbd80a17e	-0.06280802
218	0xbd9433fa	-0.07236476
219	0xbd2fafe0	-0.042892337
220	0x3dedd2d8	0.11612481
221	0x3cf00200	0.029297829
222	0x3c5e8410	0.013581291
223	0xbcb1eb50	-0.021718651
224	0xbdbb6560	-0.09150195
225	0xbd6caeac	-0.057783768
226	0xbda1eab2	-0.07906093
227	0x3cb68c98	0.022283837
228	0xbcfc8610	-0.030825645
229	0x3de8e8da	0.11372538
230	0x3ccb9668	0.024851993
231	0x3ddfe332	0.10932006
232	0x3db102bc	0.086431
233	0xbd5947dc	-0.053047046
234	0x3d31bc54	0.043392494
235	0xbdd2cfbe	-0.1029353
236	0x3d888ad6	0.06667106
237	0xbd7396bc	-0.059469923
238	0xbdbde8a6	-0.0927289
239	0x3b8f96a0	0.0043819696
240	0x3c208940	0.009798348
241	0x3d99430a	0.0748349
242	0x3dc12574	0.09430972
243	0xba721600	-0.00092348456
244	0xbde7f3e4	-0.11325815
245	0x3d6e1da8	0.05813375
246	0x3ccf6eb8	0.02532135
247	0xbd3af9c8	-0.045648366
248	0xbd86353e	-0.06553124
249	0x3dba3e06	0.09093861
250	0x3da1ec12	0.07906355
251	0xbdb94dd2	-0.09048046
252	0xbd56a180	-0.052400112
253	0x3d9817f4	0.07426444
254	0x3dd8aa30	0.10579336
255	0xbcbb6748	-0.022876397

lstm.bias_ih_l1 f4 [256]
0	0xc08b8d85	-4.3610253
1	0xc08a6419	-4.324719
2	0x40bf6241	5.980744
3	0xbf7c52d9	-0.98563915
4	0xbf2a1e2a	-0.66452277
5	0xc08bae38	-4.365017
6	0x3f2f1334	0.68388677
7	0xbf82e3bc	-1.0225749
8	0xc03d7f22	-2.9608846
9	0x3f0d5fc9	0.5522428
10	0x3fa79d37	1.3094853
11	0xc06e3fa2	-3.7226338
12	0xc098a2c4	-4.769869
13	0xbfd7b1a6	-1.6851089
14	0xc09b9a6c	-4.8626003
15	0xc05f4ebe	-3.489181
16	0xbfd51ab4	-1.6648774
17	0x40244ebc	2.5673056
18	0xc08f6d08	-4.4820595
19	0xc027c02d	-2.6211045
20	0xbed94868	-0.42438054
21	0xc072580b	-3.7866237
22	0xc050e4f7	-3.263975
23	0xc0b95e48	-5.792759
24	0xbfdaf657	-1.7106427
25	0xbf686460	-0.9077816
26	0xc029db5f	-2.6540143
27	0x3d9d1755	0.07670466
28	0xbecb2060	-0.39673138
29	0x3fb1f188	1.3901834
30	0x3f9695d1	1.176447
31	0xc02f55b5	-2.7396061
32	0x40027c05	2.0388196
33	0xbfb3c988	-1.4045877
34	0x4027f91f	2.6245801
35	0xbe6fed0c	-0.2343027
36	0xbefc901b	-0.49328694
37	0x40599069	3.399439
38	0x407bcea3	3.934487
39	0xc08dd813	-4.4326262
40	0x3fbc2d46	1.4701316
41	0x40be174e	5.940345
42	0x406341a5	3.5508816
43	0xbf8ca410	-1.0987568
44	0x408e154a	4.440099
45	0x3ef01237	0.46888897
46	0xc03138c3	-2.7690895
47	0x4043fdd2	3.062367
48	0xbf4c35da	-0.7976967
49	0xc02bd948	-2.6851368
50	0xbfa103ac	-1.2579246
51	0xbfeefd5a	-1.8671067
52	0xc01c375a	-2.4408784
53	0xc07b9a5b	-3.931296
54	0xbdd7da0d	-0.10539637
55	0x3fb06187	1.3779763
56	0x402e60cf	2.7246587
57	0xc07685fa	-3.8519273
58	0xbff00273	-1.8750747
59	0x3f3edf25	0.7455924
60	0x3fdddfd4	1.7333932
61	0xc065311f	-3.581123
62	0xc0f1d5ff	-7.5573726
63	0xbfa1ad39	-1.2630988
64	0xbc2b6bd0	-0.010462716
65	0xbcf25d10	-0.029585391
66	0xbd1fee6c	-0.039045736
67	0xbd078a58	-0.03309092
68	0xbd35af0c	-0.04435639
69	0xbc88e818	-0.016712233
70	0xbdb491e4	-0.08816889
71	0x3ca58d88	0.020209089
72	0x3df765f6	0.120799944
73	0x3a0ace00	0.00052949786
74	0x3dc92c70	0.09822929
75	0x3d61840c	0.05505757
76	0xbdeb01dc	-0.11474964
77	0xbd4f4934	-0.05060692
78	0x3c298be0	0.01034829
79	0xbd8afe3e	-0.06786774
80	0x3d40f290	0.047106326
81	0xbca72238	-0.020402059
82	0xbcc5eb68	-0.024160102
83	0x3d5da888	0.054115802
84	0x3d66d3f0	0.056354463
85	0x3d047248	0.03233555
86	0xbcd78d38	-0.026312456
87	0xbdf24b66	-0.11830787
88	0x3da06f12	0.07833685
89	0xbc06a370	-0.0082176775
90	0xbd5d4798	-0.054023355
91	0x3dc01f3a	0.09380956
92	0x3d048c50	0.032360375
93	0x3de40f1c	0.111356944
94	0x3dffabc2	0.12483932
95	0x3cffcc98	0.031225488
96	0xbcca1750	-0.02466932
97	0xbb493280	-0.0030700266
98	0x3da3ddda	0.08001299
99	0xbc9449d8	-0.018101618
100	0x3df4a148	0.119448245
101	0x3d52f1dc	0.051500186
102	0xbdbee08c	-0.09320173
103	0x3d22b6b8	0.039725035
104	0x3d87aa32	0.06624259
105	0xbd937f86	-0.072020575
106	0xbccbb020	-0.024864256
107	0xbd783ba4	-0.060603753
108	0x3d94235a	0.07233305
109	0x3ce4d7e8	0.027934983
110	0xbda4d72a	-0.08048852
111	0xbda4da56	-0.08049457
112	0xbdc1ed0c	-0.09469041
113	0xbdae63c6	-0.08515124
114	0xbb22b200	-0.0024825335
115	0x3c1711e0	0.00922057
116	0x3d4c6b30	0.04990691
117	0xbdb7a008	-0.089660704
118	0x3daa10f6	0.08304016
119	0x3d7f1d48	0.062283784
120	0xbc4fe960	-0.012689918
121	0xbddb23d4	-0.10700193
122	0x3d045f84	0.032317653
123	0x3d4c782c	0.049919292
124	0x3c26f2d0	0.010189727
125	0xbdf7fe82	-0.121090904
126	0xbdb690e6	-0.08914356
127	0x3d8620de	0.06549238
128	0xc04b9e93	-3.1815536
129	0x3e87ce9b	0.26524815
130	0x3eb3e73b	0.35137352
131	0x3eb9a521	0.36258796
132	0xbedd8055	-0.43261972
133	0xc02353cd	-2.5519898
134	0x3f8bed9d	1.0931889
135	0xbfd0cdd0	-1.6312809
136	0xbf8a37d0	-1.0798283
137	0xc027b35a	-2.6203218
138	0x3ff5e81f	1.9211463
139	0x3ff222b2	1.8916838
140	0x3ed456e3	0.4147254
141	0x3f2eb6d8	0.6824775
142	0x3d2d49ee	0.042306833
143	0xc080b486	-4.0220366
144	0x4080f1c5	4.029513
145	0xbf91dea1	-1.1396066
146	0x3f82c3c6	1.0215995
147	0x3f9dc099	1.2324401
148	0x405f0bbf	3.485092
149	0xc095e693	-4.6843963
150	0xc001f186	-2.0303664
151	0xc012f58f	-2.2962377
152	0xbfe05010	-1.7524433
153	0x3f41e17c	0.75734687
154	0x40512a0d	3.2681916
155	0x4021cef6	2.528257
156	0x3eb191d9	0.34681585
157	0xbf919abd	-1.1375347
158	0x402c7cf5	2.6951268
159	0x406ab2bf	3.6671598
160	0xbdf735c6	-0.12070803
161	0x4045cd73	3.0906646
162	0xc044d1b8	-3.0753002
163	0x3fdebb7e	1.7400968
164	0xbfaeaa55	-1.3645731
165	0xbfb1d254	-1.3892312
166	0xbfd7ee66	-1.6869628
167	0xbe9d254f	-0.30692527
168	0x3d5909ce	0.052987866
169	0xc00f2403	-2.236573
170	0x3f42f547	0.76155514
171	0x4026c9b2	2.6060605
172	0xc00f2b23	-2.2370079
173	0x3f49560c	0.7864692
174	0xbfed98d8	-1.8562269
175	0x3fa3e6cb	1.2804807
176	0xbf2c6224	-0.6733725
177	0x409521e5	4.6603875
178	0xbf1ea89b	-0.6197602
179	0x3f8eb0c3	1.1147693
180	0x3f246e27	0.6423058
181	0x3f5f710d	0.87281877
182	0xbf3471fc	-0.70486426
183	0x40776d2c	3.8660383
184	0xbf844c84	-1.0335851
185	0x402cd7a0	2.7006607
186	0x3f3c3ccb	0.7353026
187	0xbcd904e5	-0.026491592
188	0xc07e21dc	-3.9708166
189	0xc00638e4	-2.0972223
190	0x3e1624cb	0.14662473
191	0xc026730f	-2.6007726
192	0xc07bf1ec	-3.9366407
193	0xc0a1a121	-5.050919
194	0x4020d3c9	2.5129263
195	0xc07a2601	-3.9085696
196	0x403bcb36	2.934278
197	0xc08c7579	-4.38934
198	0x401f4b11	2.4889567
199	0xbfaf9db4	-1.3720002
200	0xc0760eba	-3.8446488
201	0x3f3b72c4	0.73221993
202	0xc0a9bda2	-5.3043985
203	0xc06989aa	-3.6490273
204	0xc07538cb	-3.8315914
205	0xc0ecf4c3	-7.404878
206	0xbf4eacaa	-0.80732214
207	0xc03f6a09	-2.9908469
208	0xc08ab87c	-4.33502
209	0x3f24e58f	0.6441278
210	0xc020b291	-2.5108988
211	0x3c087601	0.008328916
212	0xc0a244c3	-5.070894
213	0xbfb040bc	-1.3769755
214	0xc008c4a5	-2.1370022
215	0xc0256f5f	-2.5849226
216	0xbf9a69f8	-1.2063589
217	0xc0be3466	-5.9438963
218	0xbf54fd99	-0.8319946
219	0xc08c4c5c	-4.384321
220	0xc0a61f4f	-5.191322
221	0xc0ce847c	-6.4536724
222	0x3fc53bb2	1.5408843
223	0xc02c55c5	-2.692735
224	0xc01d5e18	-2.458868
225	0xbfc62679	-1.5480491
226	0xc04b8d62	-3.1805043
227	0xbf3d91ec	-0.74050784
228	0xbf2723bb	-0.65288895
229	0x403f844a	2.9924493
230	0x40b1f1ba	5.5607576
231	0xc08850f5	-4.2598825
232	0xc0a0dfaf	-5.027305
233	0x400531cb	2.0811641
234	0x3ff35688	1.9010782
235	0xc0aedbe2	-5.464341
236	0x4014f5cc	2.3275023
237	0x40359349	2.8371146
238	0x3d8ab00b	0.06771859
239	0xbf1cbbc2	-0.61223996
240	0xc08c1f47	-4.378818
241	0xc003b315	-2.0578053
242	0xbf58ce62	-0.84689915
243	0x3f10bcd0	0.56538105
244	0xbfa92d45	-1.321694
245	0x40472ed2	3.1122327
246	0xc081c394	-4.0551243
247	0xc04c4a5d	-3.1920388
248	0x400a612d	2.1621811
249	0xbf66fff4	-0.90234303
250	0xbf6988a7	-0.9122414
251	0xc06cfd57	-3.7029626
252	0x402370e1	2.5537646
253	0xc05777a1	-3.3666766
254	0xc086f2ab	-4.2171226
255	0x3eb411dc	0.35169876
