model_saved/mlp.pth (torch, 25559 bytes, 5 tensors)

l1.weight f4 [49, 98]
000000 0b e2 42 be 61 66 24 bf 75 a1 77 be a5 4d c7 be
       -0.19031541 -0.6421872 -0.24182685 -0.38926426
000010 26 c8 ad be 6f d7 c1 be b0 7d c9 3d 7e 3c 26 3e
       -0.33941764 -0.37859675 0.09838426 0.16234013
000020 21 7b 6c 3d e9 6d f5 3d 30 e6 ad 3d 21 00 8e 3e
       0.057734612 0.11983854 0.084911704 0.27734473
000030 50 aa f7 3d 89 f2 12 3e ec 07 03 3d f8 b4 e0 be
       0.120930314 0.14350332 0.031989977 -0.43888068
000040 60 ba 93 3d d9 02 09 3e cb f7 60 3e 44 af 37 bc
       0.072132826 0.13379993 0.21969526 -0.01121122
000050 52 e4 2f 3f 02 07 fe 3d 50 48 12 bc e3 e6 01 3e
       0.68707764 0.124036804 -0.008928373 0.12685733
000060 ac 38 34 3c 82 f9 2b be 53 f3 98 3e b4 8a 8e 3c
       0.01099984 -0.16794398 0.29873142 0.017400123
000070 ad 20 00 3e 55 e4 b1 3e a7 4b 89 bd 6f ef ae be
       0.12512465 0.34744516 -0.06703883 -0.34167048
000080 4c 54 41 3d 2c 8e c0 be aa 1e 19 3e 7f 3c 5e 3e
       0.047199532 -0.3760847 0.14953104 0.21702765
000090 34 ca 81 be 11 07 aa 3e f3 77 3a 3e ef ec 58 bd
       -0.2534958 0.33208516 0.1820982 -0.052960332
0000a0 bd 34 dd 3d af 15 4a 3c e9 d2 a7 3d 97 34 17 bd
       0.10801075 0.012334271 0.08194525 -0.036915388
0000b0 b1 47 08 be 34 d2 93 3e 04 82 e3 bd 15 39 27 be
       -0.13308598 0.2887131 -0.11108783 -0.16330369
0000c0 d7 e9 0e 3e d8 ad 68 be 38 1a 55 3e 5d 84 97 bc
       0.1395639 -0.22722566 0.20810783 -0.018495733
0000d0 37 b7 8d 3e 5c 35 a6 3c a5 4a 0a 3e 2f 8c 42 bb
       0.27678844 0.020289116 0.13505037 -0.0029685607
0000e0 5d 4d a4 3d b6 95 f5 3d ec 2a 4c bd 69 96 c5 ba
       0.080225684 0.11991446 -0.04984562 -0.0015074733
0000f0 da 58 a9 3e b8 52 c4 3d 90 7d de bb b5 a8 1e be
       0.330756 0.0958609 -0.0067898706 -0.15494044
000100 b4 7d 40 3d 63 f5 39 3e 60 1d 2a 3e fa 30 be 3d
       0.04699488 0.18160014 0.16612768 0.09286685
000110 13 10 7a 3d a1 ec f5 bd f9 7d 14 3d 38 91 55 3e
       0.061050486 -0.12008024 0.03625295 0.20856178
000120 20 60 07 3c 0f 35 84 3d ac 32 f4 3d db fb 56 3e
       0.008262664 0.064554326 0.119237274 0.20994513
000130 29 9c 52 bd 39 2f 1d bd 3b 11 1a 3f 6f 97 38 bd
       -0.051418457 -0.038375113 0.6018254 -0.045066293
000140 3e 1d 01 3d d4 46 29 3e ca fe 8a be 25 ba 50 3c
       0.03152203 0.16530925 -0.27147514 0.012739693
000150 b5 9d 81 3e cd d4 a7 bd e7 f3 e9 bb 30 4e 07 3e
       0.25315633 -0.081948854 -0.007139671 0.1321342
000160 16 3c 26 bd ad e1 8f bd b5 41 c4 bc db 87 72 3e
       -0.040584646 -0.07025466 -0.023957113 0.23684637
000170 fe a3 09 3e c1 6c 68 3e ce 1b 78 3e cc 23 24 3e
       0.13441464 0.22697736 0.24229357 0.1602928
000180 19 97 ee bc ea c8 37 be 5e ab d0 bc 7f 0e 87 3b
       -0.029124783 -0.17947736 -0.02547234 0.004121601
000190 0d 2c 68 bd ae a4 a6 bc d5 c2 ef 3b c3 c4 96 bd
       -0.056682635 -0.020342197 0.007316927 -0.07361748
0001a0 93 8a 45 bd 8d 21 16 3d 1a 9a fa ba e5 2c 40 bd
       -0.048227858 0.03665309 -0.0019119412 -0.046917815
0001b0 93 8f cf bd a7 e8 b8 3b 96 46 85 3d 41 62 55 bd
       -0.101348065 0.0056429687 0.06507604 -0.052095655
0001c0 6f 3e b8 bc f5 a6 85 bd 79 11 83 bd f3 c9 2c bd
       -0.022490708 -0.06525985 -0.06399817 -0.04218478
0001d0 bc 8c c2 bc 9f b5 b8 3d 6f e4 cf bd 7b 4d e4 bc
       -0.023748748 0.090190165 -0.10150992 -0.027868977
0001e0 86 f1 a0 bd d8 ae 27 bd 69 0d bd 3d b7 33 c5 bc
       -0.07858567 -0.04093823 0.092310734 -0.024072511
0001f0 37 dc ba 3c 60 1b 1d bb 2a 47 c7 bd 4a 17 58 3d
       0.022810085 -0.0023972616 -0.0973037 0.052756585
000200 58 bd 12 3d 52 15 c8 ba c6 4b fc bc e7 21 c8 3c
       0.035825104 -0.0015265143 -0.03079785 0.024430228
000210 4f 64 59 3b 33 e9 65 bd 2c 74 9a bd 7e bc 03 3d
       0.003317136 -0.0561306 -0.07541689 0.032162182
000220 9f c8 8b 3d 50 bd c4 bb 3f d1 3f 3d 09 bf c7 bd
       0.06825375 -0.006004013 0.046830412 -0.09753234
000230 7a 6c a5 3b 85 01 99 bd a0 42 27 3d fe bf e7 bc
       0.005048332 -0.07470993 0.040835023 -0.028289791
000240 ed 2c 8a 3d f2 8a b2 bd 38 60 23 bd 51 c8 11 3d
       0.0674685 -0.08717908 -0.039886683 0.035591427
000250 43 25 f0 bd 01 1e 76 3d 27 67 9a 3d 5c 94 8a bd
       -0.11725857 0.060087208 0.07539206 -0.067665786
000260 c5 20 bd 3c 48 5b e1 bd eb 23 97 bc 05 7a 8a bd
       0.023086915 -0.11003739 -0.018449744 -0.06761555
000270 50 f0 86 bc 48 19 96 bc 4d 66 28 be e2 b2 94 bd
       -0.016472012 -0.018322602 -0.16445275 -0.07260682
000280 48 b4 ad 3c 98 59 e9 3c 38 93 a0 3d 3e e1 b5 3d
       0.021204129 0.028485104 0.0784058 0.08880852
000290 05 41 10 3c 6e 51 46 bb 9f da 98 3d dc 23 2e bd
       0.008804564 -0.0030260938 0.07463574 -0.042514667
0002a0 11 0d 5b bd fa 16 6a 3d 90 0f 26 bc e1 6b e4 3c
       -0.053479258 0.05715082 -0.010135546 0.027883472
0002b0 69 c3 79 3d e6 2d 7e 3c 3f 01 50 bd d4 85 80 bd
       0.060977373 0.015513873 -0.05078244 -0.06275526
0002c0 29 13 83 3d c9 c3 32 3d 6d 36 51 3c 3a 6a 88 bd
       0.06400139 0.043643747 0.012769324 -0.06660886
0002d0 74 64 af 3d bc 17 8d bd 3c 8e 81 bd 78 f1 ca 3d
       0.08564082 -0.068892926 -0.06325957 0.09909338
0002e0 92 c5 3f bd 0b 82 b0 bd 89 85 97 bd d3 78 92 bd
       -0.046819277 -0.08618554 -0.07398517 -0.07151952
0002f0 f2 29 b0 bd 49 0a ad 3d d1 63 cc bd d1 0f b7 bd
       -0.086017504 0.08449227 -0.09979976 -0.089385636
000300 00 e9 98 bd 63 b1 1f bb bb 22 17 bd e0 4c 5d 3d
       -0.07466316 -0.0024367205 -0.036898356 0.05402839
000310 a0 37 5b 3f 0c 63 f3 3f 1a 8e 02 3f 04 09 a2 3f
       0.8563175 1.9014602 0.5099808 1.2659001
000320 f5 ce b3 3f a5 dd ab 3f 16 01 3d be b7 c9 52 bf
       1.4047533 1.3427016 -0.18457446 -0.8233904
000330 86 44 67 bd 8e e4 90 be 16 2c 86 be 73 27 13 bf
       -0.056461833 -0.28299373 -0.2620551 -0.5748207
000340 78 68 1f bf ab 1d 31 bf 05 2a 78 be b0 92 6c 3f
       -0.6226878 -0.69185895 -0.24234779 0.9241133
000350 09 03 a7 be 9f 59 5a be 6e 71 f8 be 02 7f f3 3d
       -0.32619503 -0.2132325 -0.4852404 0.11889459
000360 e1 35 10 c0 6a 42 15 bf 96 12 83 3d 03 e5 3f bf
       -2.2532885 -0.58304465 0.06400029 -0.7495882
000370 fb a1 9a bd 65 b1 11 3f 65 7c 4c bf e0 40 ab 3c
       -0.075504266 0.5691131 -0.7987731 0.020904958
000380 bb e8 5b be 37 82 88 bf a9 42 07 be 7e e0 7f 3f
       -0.21475498 -1.0664738 -0.13209023 0.9995192
000390 a1 72 24 be de c8 8c 3f 06 b8 0b bf 51 29 4e bf
       -0.16059352 1.09988 -0.5457767 -0.80531794
0003a0 ab 00 a3 3f 28 c4 0a bf b9 91 f9 bd 43 27 5d bd
       1.2734579 -0.5420556 -0.121859975 -0.05399252
0003b0 5b 14 7f be 16 23 ed be 29 38 0f be 00 17 ad 3c
       -0.24910109 -0.4631583 -0.13986267 0.021129131
0003c0 29 17 0e 3f 7e 2b 3c bf 42 5d 47 3d 42 c1 27 3e
       0.5550409 -0.73503864 0.048672922 0.16382316
0003d0 dc bc 1c bf cc 53 a5 3f a7 47 7e bf 0c b2 f6 3e
       -0.61225677 1.2916198 -0.9932808 0.48182714
0003e0 85 bf 47 be ea a0 d1 3d 07 83 6e be 31 39 53 bb
       -0.19506653 0.1023577 -0.2329217 -0.0032230134
0003f0 e7 62 fa be 62 59 43 be 5e 7a 85 bd 89 4c ea bc
       -0.48903582 -0.19077066 -0.0651748 -0.028600948

l1.bias f4 [49]
000000 06 a1 df bd f1 1e 32 be 83 1f 44 3f 01 56 f6 bd
       -0.10919385 -0.17394616 0.76610583 -0.12028123
000010 db ff ce bd f1 4d b5 bd f7 a3 3f be 42 a9 8a 3c
       -0.10107394 -0.08852757 -0.18714891 0.016926412
000020 f3 64 66 be f7 ea b6 bc e0 88 8f bc ad 76 85 bd
       -0.22499447 -0.022328837 -0.017521322 -0.06516776
000030 d4 9b 65 3e 65 a1 1f be 15 de ba 3d 27 e2 5b be
       0.22422725 -0.15588911 0.0912439 -0.21472989
000040 0f d8 13 be 38 c8 ee 3b 76 71 0e 3e 35 18 95 3d
       -0.14437889 0.0072870515 0.1391047 0.07280008
000050 2b f7 f0 3c 6f 53 01 be 77 ea 06 be 38 1b c8 bd
       0.029414734 -0.12629484 -0.13175379 -0.097708166
000060 20 4f 43 be e4 6f 23 bd 8c 8c b7 bc 96 f3 39 be
       -0.19073153 -0.03990163 -0.022405885 -0.18159327
000070 d1 8f 6e be 33 b8 4e be fa 09 bd bd ba 6d 83 be
       -0.23297049 -0.20187454 -0.092304185 -0.25669652
000080 15 b5 c3 bd 39 e4 49 3d 73 74 79 be 30 d0 08 3e
       -0.09556023 0.049289916 -0.24360828 0.13360667
000090 57 7c 4b bd 90 87 1e 3e 97 4e 73 be 06 64 01 be
       -0.049679127 0.154814 -0.23760448 -0.12635812
0000a0 64 58 84 bd 10 b8 4d be b1 3d b7 bd 1b 6c 21 be
       -0.06462172 -0.20089746 -0.089473136 -0.15763895
0000b0 f5 3e 15 bc 97 dc 1c 3d 67 74 0b be 5e 96 23 be
       -0.009109248 0.03829631 -0.13618623 -0.1597533
0000c0 06 18 69 bd
       -0.056907676

l2.weight f4 [20, 49]
000000 d0 bb 10 3f 28 55 92 3b d5 c8 d4 bf ce eb 0c 3e
       0.5653658 0.004465718 -1.6623789 0.13761827
000010 a7 8d 48 be 59 0c 6b be 78 44 05 3d 1e 2f 6c be
       -0.19585286 -0.22953929 0.032536 -0.23064849
000020 dd 2c 5a 3e 09 2b 0f bf 87 6d d8 be 30 19 f1 3e
       0.21306176 -0.5592504 -0.42271063 0.4708953
000030 5d 9e 96 bf 51 03 d9 3e 30 2b 7f bf 86 43 98 3f
       -1.1767079 0.42385343 -0.99675274 1.1895607
000040 04 40 07 3f 68 06 31 bf 3b 0a 96 bf 6e ac fa be
       0.52832055 -0.691504 -1.1721872 -0.48959678
000050 08 14 50 bf b8 18 7f bd 5e 5d cd 3e f3 b0 ee 3e
       -0.81280565 -0.062279433 0.40110296 0.46619377
000060 a6 fd 1c 3f d9 b5 8b be 65 57 45 be 86 c1 76 3f
       0.61324537 -0.27287176 -0.1927162 0.96389043
000070 ba 34 95 3f 09 3f 6a bd 5b 60 f4 3e aa 38 90 3f
       1.1656716 -0.05718902 0.47729763 1.1267292
000080 79 44 92 3e a5 9f 49 bf a2 09 2e 3f 69 0e 3b bf
       0.28567865 -0.78759223 0.6798345 -0.73068863
000090 43 ff 8c be ad 0b 65 bf 8b 7f 82 3d 57 2e fe 3e
       -0.275385 -0.8947094 0.06371983 0.4964473
0000a0 3a 7d c3 bd 6d a4 72 3e ed 4c a5 3d 97 c3 30 3f
       -0.095453694 0.23695536 0.08071313 0.69048446
0000b0 09 e8 f7 be 42 6d c8 be 0c c4 4d 3f ee cd 61 3e
       -0.48419216 -0.39145857 0.8037727 0.22051212
0000c0 7a 45 bc be f5 f1 05 be 1e 8f dd bc 99 a8 0b 3f
       -0.36771756 -0.1308058 -0.027045783 0.54554135
0000d0 16 2b ba 3c c4 cb 0c 3c 3b 1e 8e 3d 99 e5 fb bb
       0.022725623 0.008593503 0.0693936 -0.0076872823
0000e0 87 13 1a 3e 5d a1 d6 bd 9a 6d 49 3e 24 09 e4 3d
       0.15046512 -0.10479996 0.19670716 0.11134556
0000f0 3e 06 63 bd 72 36 c6 3e 77 fb 7e be d7 fa 68 3e
       -0.055425875 0.38713413 -0.24900614 0.22751938
000100 34 f1 9f be 95 30 e5 bd 1d 36 e1 3d d3 74 8e 3e
       -0.3123871 -0.11190907 0.109966494 0.27823505
000110 df a3 22 3e c4 e6 57 3e 01 e4 19 3e fc 70 a8 bc
       0.15882824 0.21084124 0.15028383 -0.020561688
000120 2f 2f b6 3c 1b d1 93 be 84 23 2f 3e d4 2f 10 3e
       0.022239296 -0.28870472 0.17103392 0.14080745
000130 88 c4 1e be 9d c1 be be 09 b9 c5 bc df ae 3b be
       -0.15504658 -0.3725709 -0.024136083 -0.18328427
000140 1d 87 7d be 2e 2f 4c be fd bd 1d 3d c0 b5 a9 bd
       -0.24758573 -0.19939873 0.038511265 -0.08286619
000150 e5 b5 8a 3e bd dc 17 3e 18 36 2e 3e 5f be c0 bd
       0.270919 0.14830299 0.17012823 -0.094113104
000160 d7 77 d5 bc 5e 8d 72 3d 1e 94 fe bb 72 a9 12 3d
       -0.02605812 0.05921685 -0.007769122 0.035806127
000170 eb 05 55 be 8a a4 07 3e 56 e8 37 bd 58 60 92 be
       -0.20803039 0.1324636 -0.044899307 -0.2858913
000180 0d 6b f4 3c 0e 21 cd 3d 6d 26 1b 3f 31 75 26 3d
       0.029836202 0.1001607 0.6060551 0.040639106
000190 48 83 04 c0 47 9d b7 3e f7 16 a6 be b8 a2 9b be
       -2.0705128 0.3586218 -0.32439396 -0.30397582
0001a0 8d ee 10 be d6 3e a8 be b4 31 d8 3e d3 28 1e bf
       -0.141535 -0.3286044 0.4222542 -0.6178104
0001b0 1b 5f fd be d6 f0 39 3f 7e 31 ab bf af be c3 3e
       -0.49486622 0.7263311 -1.3374479 0.38231418
0001c0 12 9c 9c bf e5 4a bc 3f f6 9c 48 3f 49 e7 39 bf
       -1.2235129 1.4710356 0.78364503 -0.7261854
0001d0 9c 8d b8 bf 23 72 36 bf 9b 0c 73 bf f2 76 1f be
       -1.4418216 -0.7126791 -0.9494111 -0.15572718
0001e0 41 4c f6 3e 96 e2 08 3f 76 ed 51 3f a1 26 d4 be
       0.48105052 0.5347074 0.8200296 -0.41435722
0001f0 5f eb 7b be e8 8c 95 3f b8 32 c7 3f ff 32 45 be
       -0.24601506 1.1683626 1.5562353 -0.19257735
000200 81 b2 39 3f f6 f2 bd 3f 48 17 b2 3e a3 65 5a bf
       0.72538 1.4839771 0.34783387 -0.85311335
000210 52 b7 36 3f 72 54 9b bf 0a 52 12 bf c1 90 ac bf
       0.71373475 -1.2135146 -0.5715643 -1.3481675
000220 8d 5d 79 3e ea 85 2d 3f a9 52 cb bd b0 0d 44 3e
       0.24352093 0.6778246 -0.099278755 0.19145846
000230 44 03 98 bd 7b df 73 3f 8e 04 33 bf 5c 72 b5 be
       -0.07422498 0.9526288 -0.69928825 -0.35438812
000240 98 14 86 3f c5 ff b9 3e a6 19 0b bf 16 88 2f bf
       1.0475035 0.3632795 -0.5433601 -0.68567026
000250 fe 7c 18 3e e8 c9 03 40 6b 6f dc be f8 2f b1 3e
       0.1489143 2.0591984 -0.43053755 0.3460691
000260 a3 5a db 3e a6 d5 a4 3c c4 a5 00 3f 26 62 b9 be
       0.42842588 0.020121407 0.5025294 -0.36207694
000270 a9 32 1f 3f ba 9c 1f 3f 40 77 62 bf 1b fd c2 3f
       0.62186676 0.6234852 -0.8846321 1.5233492
000280 f0 7f 23 bf 70 17 a3 3f d1 00 c2 bf c6 97 53 bf
       -0.6386709 1.2741528 -1.5156499 -0.8265346
000290 5f 69 68 3f 13 35 bc 3f d7 23 27 3f c9 ac 8a 3f
       0.90785784 1.4703697 0.6528906 1.083398
0002a0 89 1a cc 3d db 6a df be 2b 6b be be e2 bd 3a bf
       0.09965999 -0.43636212 -0.37191138 -0.7294599
0002b0 0c 45 d2 3e d0 29 cf 3e fa aa b2 bf 94 2f d3 bf
       0.41068304 0.40461588 -1.3958428 -1.6498895
0002c0 5a 3d 60 3e fa 6b 71 bf 81 73 bf bf a8 92 96 be
       0.21898404 -0.94305384 -1.4957124 -0.29408765
0002d0 07 55 84 3f bc bf 44 bf ae 3a a2 3f 57 57 c6 3e
       1.0338448 -0.76855063 1.2674158 0.3873851
0002e0 04 15 ad 3f a6 c5 d0 bd a3 8e 2d bf 97 d9 6b 3e
       1.3522038 -0.101939484 -0.6779577 0.23032223
0002f0 62 ef 8e be 59 6f 8c 3d 57 38 8c bf fd c1 5e 3f
       -0.2791701 0.068571754 -1.0954694 0.8701475
000300 1e bd d2 3e 12 e8 ab bf 3e 1e b0 be d7 f2 01 3f
       0.4115991 -1.3430197 -0.34398073 0.5076117
000310 34 6c 16 3f 25 01 36 bd 1e 5e f7 bf db a3 ae 3e
       0.58758855 -0.044434685 -1.9325597 0.34109387
000320 68 7e cc be 83 04 c5 be 0c 10 d2 bd 2c 7a a2 be
       -0.3994019 -0.38480005 -0.10256967 -0.31733835
000330 21 da c1 3e 30 ba fd be 06 ac 04 bf de 88 0d 3f
       0.37861732 -0.49556112 -0.51824987 0.5528697
000340 88 98 b0 bf 60 f4 17 3f 26 9f 93 bf e8 0e b2 3f
       -1.3796549 0.5935726 -1.1532943 1.3910799
000350 2e 92 15 3f 53 94 49 bf 28 4b a0 bf d0 51 15 bf
       0.5842618 -0.7874195 -1.2522936 -0.5832796
000360 d0 6b 80 bf 73 62 24 be ce 2e db 3e fa ea 95 3e
       -1.0032902 -0.1605318 0.42809147 0.29280835
000370 86 58 33 3f b7 82 d6 be 1b a6 84 be b7 39 96 3f
       0.7005695 -0.41896603 -0.25907978 1.1736363
000380 57 30 b7 3f c7 9a 62 be b7 42 44 3f 3d b9 b6 3f
       1.4311627 -0.22129355 0.766643 1.427528
000390 0e e1 bb 3e 3b 2d 67 bf 47 3c 4a 3f a1 97 8f bf
       0.3669514 -0.9030339 0.78998226 -1.1218148
0003a0 e4 d0 cf be 5b 64 83 bf 6b a7 d5 3d c8 80 29 3f
       -0.40589058 -1.0265001 0.10432323 0.6621213
0003b0 1f 2e e9 bd 42 39 a6 3e ee b5 02 3e ac 8c 73 3f
       -0.1138575 0.3246556 0.12764713 0.95136523
0003c0 5d dc 14 bf bb 9a fd be 6f 4c 7d 3f e3 6f a3 3e
       -0.5814875 -0.49532112 0.98944753 0.319213
0003d0 e6 98 10 bf fb 10 8c be 33 4f 2f 3d ef ec 7d 3f
       -0.56483305 -0.27356705 0.04280014 0.99189657
0003e0 3b ea 8c be 4d 8a 85 3e ed f7 c3 3d 4c bd 69 3d
       -0.27522454 0.26082078 0.095687725 0.057065293
0003f0 8e 5f 45 3e 84 fd 9a be 69 b6 b4 3e 77 23 95 3e
       0.19274732 -0.30271542 0.35295418 0.2912862

l2.bias f4 [20]
000000 74 0f 45 bc be d0 ed 3d c2 dc 3b bd 46 f1 08 3c
       -0.01202761 0.1161208 -0.045864828 0.008358305
000010 43 5a 9b bb f9 37 3c bd 04 4d 2b be a8 5a e3 3c
       -0.0047409846 -0.045951817 -0.16728598 0.02775319
000020 01 5c 6f 3c 93 cf 99 bc 74 b4 0e 3e ea 5b d4 3d
       0.014609338 -0.018775737 0.13936025 0.10369094
000030 ff e2 02 be 1a 13 b3 ba 83 61 2e bc 03 0c 4e bd
       -0.12781905 -0.0013662309 -0.010643366 -0.050304424
000040 b7 72 ed bc 85 8d 21 3e 8e 29 1c bc db 0c d9 3d
       -0.028985364 0.15776642 -0.009531392 0.10598155

l3.weight f4 [1, 20]
000000 ab 9b 67 c0 7a c6 b5 3f ea 43 99 c0 40 3a bb 40
       -3.6188762 1.4201195 -4.7895403 5.8508606
000010 91 ae 8f c0 63 ac 2f 40 12 07 6f be e8 c4 a4 3f
       -4.4900594 2.7448967 -0.23342541 1.2872591
000020 99 cb 70 c0 db cc 3b 40 d9 96 87 40 69 42 04 3f
       -3.7624266 2.9343784 4.237164 0.51663834
000030 72 f2 20 be 35 d9 82 bf aa 9f 4b 3f 54 93 d3 bf
       -0.15717486 -1.0222536 0.79540503 -1.6529336
000040 cc 92 1a c0 2d e5 34 c0 67 23 59 c0 9f 32 c5 40
       -2.4152098 -2.8264878 -3.3927858 6.1624293
