textCNN/data_sentiment_CNN.pth (torch, 156935 bytes, 9 tensors)

model1.0.weight f4 [16, 1, 2]
0	0xbed3d905	-0.4137651
1	0x3f233fb2	0.63769066
2	0x3f2b10c8	0.6682248
3	0xbd90bd4f	-0.07067358
4	0x3d11983e	0.03554558
5	0x3f2a9b6c	0.66643405
6	0x3c9f4906	0.019444
7	0xbf3e8d21	-0.74434096
8	0xbe176f71	-0.14788605
9	0x3eb64d9f	0.35606095
10	0xbf54052a	-0.8282038
11	0x3f49f3b8	0.7888751
12	0x3eb8c5ca	0.360884
13	0x3ec4a8fb	0.38410172
14	0x3eec1949	0.4611304
15	0x3f0cd803	0.5501711
16	0xbc7a0127	-0.015259064
17	0x3f0366a2	0.5132848
18	0x3da22320	0.07916856
19	0xbed91aca	-0.4240325
20	0xbf28bffc	-0.65917945
21	0xbf56dec9	-0.83933693
22	0x3e5a89c0	0.2134161
23	0xbf2ee573	-0.6831886
24	0x3f251c9e	0.6449679
25	0xbf274c65	-0.65350944
26	0x3eb78330	0.35842276
27	0x3f344898	0.7042327
28	0x3ebec5b2	0.37260205
29	0x3d502dd0	0.05082494
30	0x3f1a9f16	0.60398996
31	0x3ea39d28	0.31955838

model1.0.bias f4 [16]
0	0x3d27b91b	0.040948015
1	0x3e080a06	0.13285074
2	0x3e7468a6	0.23868045
3	0x3f067c58	0.52533484
4	0xbe871cd5	-0.26389185
5	0x3f080d50	0.53145313
6	0x3f2c344b	0.6726729
7	0xbecf8ecd	-0.40538636
8	0x3e9d9083	0.30774316
9	0xbeb80bed	-0.359466
10	0x3efbcd6a	0.49180156
11	0x3deba5be	0.11506222
12	0x3e0adc8d	0.13560696
13	0x38492910	4.7960377e-05
14	0xbf25ec7f	-0.6481399
15	0x3be99750	0.0071286336

model1.3.weight f4 [32, 16, 2]
0	0xbde499cb	-0.11162146
1	0x3d0281c0	0.03186202
2	0xbdca8103	-0.09887888
3	0xbd6b67fe	-0.05747222
4	0xbe30a16e	-0.1724908
5	0xbd3aea50	-0.045633614
6	0xbd215f18	-0.03939733
7	0x3a066400	0.00051265955
8	0xbcc16fc8	-0.023612872
9	0x3e23decf	0.16002963
10	0x3d10c234	0.035341457
11	0xbde0c867	-0.10975724
12	0xbe1e468f	-0.15456603
13	0xbd1f168c	-0.03883986
14	0xbce2cd48	-0.027685776
15	0x3e158e85	0.14605148
16	0x3db767d2	0.08955349
17	0x3b221180	0.002472967
18	0xbe29bcc6	-0.16575918
19	0x3e154425	0.14576776
20	0xbd846478	-0.064644754
21	0x3e263b2f	0.16233514
22	0x3da2000a	0.07910164
23	0x3e09e6bb	0.13466923
24	0xbd869e49	-0.06573159
25	0x3ddf722e	0.1091045
26	0x3d6c5728	0.057700306
27	0xbe02ca84	-0.12772566
28	0x3be24b60	0.006905958
29	0x3d8863aa	0.066596344
30	0xbd47d504	-0.048787132
31	0xbd90bf85	-0.070677795
32	0x3dc148f8	0.09437746
33	0x3e2bbe4c	0.16771811
34	0xbe3e6dd1	-0.18596579
35	0x3e645858	0.22299325
36	0x3e3215d6	0.17391142
37	0xbde0fe85	-0.10986046
38	0xbd3699e4	-0.044580355
39	0x3db2758f	0.08713829
40	0x3ef33fcb	0.47509608
41	0x3e3ba1b9	0.18323411
42	0x3e0b7153	0.13617449
43	0x3d28d6b6	0.04122039
44	0x3d80bac8	0.06285626
45	0xbe0c05ef	-0.13674138
46	0x3dfe48d1	0.124162324
47	0xbe2f6ac0	-0.17130566
48	0x3e513a3e	0.20432374
49	0xbdaef2ae	-0.08542381
50	0xbc36a650	-0.01114805
51	0x3c2db290	0.010601655
52	0x3e143520	0.1447339
53	0x3cbd25a0	0.02308923
54	0x3d7eb9cd	0.062188912
55	0x3d887b39	0.06664128
56	0xbd5a6627	-0.053320076
57	0x3e7bdb4c	0.24595374
58	0x3e28e37c	0.16493028
59	0xbca1b2f6	-0.019738656
60	0xbd8745d3	-0.06605115
61	0xbde4dcd8	-0.11174935
62	0xbe0a2f81	-0.13494684
63	0xbdc342d9	-0.095342346
64	0xbeac7c0e	-0.33688396
65	0x3d497da1	0.049192075
66	0x3d865dfb	0.06560894
67	0x3e381d73	0.17979984
68	0x3d72d29a	0.059282877
69	0xbccc0729	-0.024905758
70	0x3e18aefb	0.149105
71	0xbdbdb78c	-0.092635244
72	0xbd7eac2c	-0.062175915
73	0xbf0a103d	-0.5393103
74	0xbdb3c8ed	-0.08778558
75	0x3e0f45af	0.13991426
76	0xbcb948e5	-0.022617767
77	0x3c8243ab	0.015901407
78	0xbd09e974	-0.033669904
79	0xbeaf9334	-0.34291995
80	0x3ba5f6d4	0.0050648246
81	0x3caf4da2	0.021399323
82	0x3e33be85	0.17553146
83	0x3dd7313a	0.10507436
84	0x3d38d988	0.04512933
85	0xbe15058e	-0.145529
86	0x3cff2205	0.031144151
87	0xbdd0975c	-0.101851195
88	0xbdbbdbff	-0.0917282
89	0xbe288a9a	-0.16459122
90	0xbe95268f	-0.2913098
91	0x3ca70390	0.02038744
92	0xbe1815c6	-0.14852056
93	0xbe16dbc8	-0.14732277
94	0xbe753a38	-0.2394799
95	0x3e1e9544	0.15486628
96	0xbb75e3c0	-0.0037519783
97	0x3b83a100	0.0040169954
98	0x3e0c144f	0.13679622
99	0xbe184290	-0.14869142
100	0xbdd5b304	-0.10434535
101	0x3de5a746	0.112135455
102	0xbe1f5590	-0.15559983
103	0xbc973708	-0.018458858
104	0x3de908fe	0.11378668
105	0x3e28a87d	0.16470523
106	0xbe2ecb5a	-0.1706976
107	0x3ce838a0	0.028347313
108	0xbd046f5c	-0.032332763
109	0xbd324710	-0.0435248
110	0xbc10ae80	-0.008830667
111	0xbe04a7dc	-0.12954658
112	0x3c0d3740	0.00861913
113	0x3df2d90e	0.11857806
114	0xbe0fd689	-0.14046682
115	0xbe0b7c35	-0.136216
116	0x3df57f9e	0.11987232
117	0xbde2e6ab	-0.11079153
118	0xbdd47aff	-0.10375022
119	0xbbdc0020	-0.006713882
120	0x3ad72800	0.0016415119
121	0xbdfd96f7	-0.1238231
122	0x3d98862a	0.07447465
123	0xbe208e25	-0.15679224
124	0x3cf01e00	0.02931118
125	0xbc80a288	-0.015702501
126	0xbe0566ea	-0.1302754
127	0x3df8a772	0.12141313
128	0xbd39788e	-0.045280986
129	0xbe92fba8	-0.28707623
130	0x3e889559	0.26676443
131	0xbe4568f8	-0.19278324
132	0x3c9a85c6	0.018862616
133	0xbe40919d	-0.18805547
134	0xbc1ee262	-0.009697529
135	0x3e3a46f3	0.18191127
136	0x3ee040e5	0.4379951
137	0xbcd90630	-0.026492208
138	0x3dd704e6	0.10498981
139	0xbd71d9ea	-0.05904571
140	0x3e436911	0.19083048
141	0xbe47aa95	-0.19498666
142	0x3e9e6ea6	0.30943793
143	0xbecd88c8	-0.40143418
144	0x3d3529eb	0.04422943
145	0xbd385f34	-0.045012668
146	0xbe2c9194	-0.16852409
147	0x3dfec7e6	0.12440471
148	0x3a610cb1	0.000858496
149	0x3e16a3a6	0.14710864
150	0x3c7663e5	0.015038465
151	0xbd83d5c2	-0.064372554
152	0x3e95ecc6	0.29282206
153	0xbea33a8f	-0.31880614
154	0xbb4523aa	-0.0030081072
155	0xbebeed26	-0.37290305
156	0x3e0ccd23	0.13750128
157	0xbd081818	-0.033226103
158	0x3ed65002	0.41857916
159	0xbeca5088	-0.39514565
160	0x3e23d6c3	0.15999894
161	0xbe66c2f0	-0.225353
162	0xbe3f6f8a	-0.18694893
163	0xbcae9b7e	-0.021314379
164	0x3d969363	0.073523305
165	0x3da4f9c2	0.0805545
166	0x3e3c0812	0.18362454
167	0x3bc34b6c	0.0059599187
168	0xbdc82169	-0.097719975
169	0xbe5055e4	-0.20345265
170	0x3cda57c2	0.026653174
171	0xbe281c48	-0.16417038
172	0x3e202d90	0.1564238
173	0xbd455979	-0.04818103
174	0xbe6af9d0	-0.22946858
175	0xbd7223e7	-0.05911627
176	0xbe24d532	-0.16096953
177	0x3cab795d	0.020931894
178	0xbde01ffe	-0.10943602
179	0x3d7a99e4	0.061181918
180	0x3caebcd6	0.021330278
181	0x3e17c494	0.14821082
182	0x3d30d6e9	0.043173704
183	0x3dedf14e	0.11618291
184	0x3dc3a6e7	0.095533185
185	0x3e1d3156	0.15350851
186	0x3d71b88f	0.0590139
187	0x3de61065	0.11233596
188	0xbddd8643	-0.10816624
189	0xbdcf10a2	-0.10110594
190	0xbe36b95a	-0.17844144
191	0x3ceb744f	0.028741984
192	0x3d5a8c68	0.053356558
193	0xbdb95132	-0.0904869
194	0x3e236461	0.1595626
195	0xbd29c9ec	-0.041452333
196	0x3d113988	0.035455257
197	0x3db2f63a	0.0873837
198	0x3db73422	0.089454904
199	0x3cebcc70	0.028784007
200	0x3c816020	0.015792906
201	0x3d40f1f4	0.047105744
202	0xbe34f1f5	-0.17670424
203	0xbdb54234	-0.08850518
204	0xbdcc0ec8	-0.09963757
205	0xbd2fdb70	-0.04293388
206	0x3d0592f4	0.03261085
207	0xbe1ea271	-0.15491654
208	0xbde6f53e	-0.11277245
209	0xbca18090	-0.019714624
210	0x3e1f76f5	0.15572722
211	0x3e014ea9	0.12627663
212	0x3e13ae97	0.1442207
213	0x3df92396	0.121649906
214	0xbd87d3fd	-0.066322304
215	0xbe2030f0	-0.15643668
216	0xbdc3843b	-0.09546705
217	0xbe285e5f	-0.1644225
218	0xbbc731e0	-0.0060789436
219	0x3e1e82d5	0.15479596
220	0xbcff4668	-0.031161502
221	0x3ca8ca38	0.020604238
222	0x3e04787b	0.12936585
223	0xbc862348	-0.016374245
224	0xbc777349	-0.01510317
225	0x3df77955	0.12083689
226	0x3e1ed71c	0.15511745
227	0x3d7dfead	0.062010456
228	0xbe08251a	-0.13295403
229	0xbd6fa004	-0.058502212
230	0xbd83a5ec	-0.064281315
231	0xbd9c01e0	-0.07617545
232	0x3dc7016e	0.097170696
233	0xbe299bd7	-0.16563354
234	0x3d8306e8	0.06397802
235	0xbe00ce9c	-0.12578815
236	0xbcb0b4a9	-0.02157052
237	0x3e2a1545	0.16609676
238	0xbe40783f	-0.1879587
239	0x3d2d569b	0.04231892
240	0x3d558806	0.052131675
241	0x3d94f2c6	0.07272868
242	0x3d7de9d8	0.06199059
243	0xbe1ccdb5	-0.15312846
244	0x3e425b27	0.18980084
245	0x3e492648	0.1964351
246	0xbdc8db75	-0.09807483
247	0x3de2ec66	0.11080246
248	0xbd37955e	-0.044820182
249	0xbe0d76f6	-0.13814911
250	0x3c22587d	0.009908793
251	0xbe3e710e	-0.18597814
252	0x3ceef3b8	0.029168949
253	0x3d536e30	0.051618755
254	0xbd2cdef0	-0.042204797
255	0xbe68e0a3	-0.22741942

model1.3.bias f4 [32]
0	0xbcc89948	-0.024487153
1	0xbd312f2c	-0.043257877
2	0x3e0e47f8	0.13894641
3	0x3d536ab8	0.051615447
4	0x3b988f19	0.0046557304
5	0x3de5b25a	0.112156585
6	0xbdfad642	-0.12247898
7	0x3e13e6aa	0.1444346
8	0x3dc14163	0.094363
9	0xbc6290e1	-0.013828487
10	0xbd659e95	-0.05605944
11	0xbb55151e	-0.0032513808
12	0xbd64baa5	-0.05584206
13	0x3e00fb06	0.12595758
14	0x3dbc8317	0.09204691
15	0x3e0a1c85	0.13487442
16	0x3d3f6b2c	0.046733066
17	0xbc34db56	-0.011038622
18	0xbd155910	-0.03646189
19	0x3e10cba6	0.14140186
20	0x3e410a37	0.18851553
21	0x3d0ec372	0.03485436
22	0x3e48e88c	0.1961996
23	0xbe2da463	-0.1695724
24	0xbc00d27e	-0.007862685
25	0x3dbac25e	0.09119104
26	0x3ddd4997	0.10805052
27	0xbdd64489	-0.10462291
28	0xbe1e0c87	-0.15434466
29	0xbd4ed4d1	-0.050495926
30	0xbd3239c9	-0.04351214
31	0xbc22595a	-0.009908998

model2.0.weight f4 [100, 352]
0	0xbd04c8be	-0.032418005
1	0xbccda9d0	-0.025105387
2	0x3cddeb7c	0.027089827
3	0x3d39f42c	0.045398876
4	0x3cd29c68	0.025709346
5	0xbd381b14	-0.0449477
6	0xbcf806a0	-0.030276597
7	0x3c9aace0	0.018881261
8	0x3d238acc	0.03992729
9	0xbcdf2e13	-0.02724365
10	0xbbad37a8	-0.0052861758
11	0xbd3daea6	-0.046309136
12	0x3e18b9fd	0.14914699
13	0x3c9cd2ad	0.019143427
14	0xbdb83b1f	-0.089956515
15	0x3e20d420	0.1570592
16	0xbd5c6a97	-0.05381259
17	0x3df3ea8f	0.11909973
18	0xbddc8aa3	-0.1076863
19	0x3b8b5df6	0.0042531444
20	0xbdd7034d	-0.104986764
21	0x3d93940e	0.072059736
22	0xbdf030b5	-0.1172804
23	0x3c7eb689	0.015546449
24	0x3d383d70	0.044980466
25	0xbd1a2b9e	-0.037639253
26	0xbd5cc33e	-0.053897135
27	0xbdb16225	-0.08661298
28	0x3d3ce37d	0.046115387
29	0xbcf073ab	-0.02935203
30	0xbd27089a	-0.040779687
31	0xbc4edb15	-0.012625475
32	0xbd861dd7	-0.0654866
33	0xbcc02149	-0.023453372
34	0xbcb9e4a7	-0.022692038
35	0x3d4dc426	0.05023589
36	0x3ba23b58	0.004950922
37	0x3bcf5c00	0.006328106
38	0x3d4d1072	0.05006451
39	0xbd2f1de2	-0.042753108
40	0x3d4e79ce	0.05040913
41	0x3c7a7700	0.015287161
42	0x3c8dd378	0.01731275
43	0xbbd0a478	-0.0063672625
44	0x3de62ea1	0.112393625
45	0x3d6a0fe2	0.057144053
46	0xbe1bcdba	-0.15215197
47	0xbdb85105	-0.08999828
48	0xbdf5d405	-0.1200333
49	0x3d2d1223	0.042253625
50	0x3db1a8f9	0.08674807
51	0x3de42f59	0.11141843
52	0x3d9c5044	0.07632497
53	0xbda05bd6	-0.07830016
54	0xbd934471	-0.071907885
55	0xbb947a69	-0.004531194
56	0xbc876c4c	-0.016531132
57	0xbd1206a9	-0.035650883
58	0xbbc4de17	-0.0060079205
59	0x3d338ca9	0.043835316
60	0xbd8fabb2	-0.0701517
61	0xbbde9c8a	-0.0067935633
62	0xbd7f1acf	-0.062281426
63	0xbd5336d5	-0.051565964
64	0xbd398186	-0.04528954
65	0xbd2e926b	-0.042620104
66	0x3c5688d0	0.013094142
67	0xbb4a48e0	-0.003086619
68	0x3d2f619e	0.042817704
69	0xbd5775dd	-0.052602638
70	0x3d01d638	0.031698436
71	0xbcf63964	-0.030056663
72	0xbd3bbfc8	-0.045837194
73	0xbcbcec5b	-0.023061922
74	0x3a76fa00	0.0009421408
75	0x3ab58640	0.0013849214
76	0x3c87e248	0.016587391
77	0xbda0f3ba	-0.07858987
78	0x3d0730fd	0.033005703
79	0xbca8359c	-0.020533375
80	0x3b2179e1	0.0024639296
81	0xbd2c5e05	-0.04208185
82	0x3c22f0a1	0.009945066
83	0x3a3761cf	0.00069954706
84	0xba570628	-0.00082025165
85	0xbcde1f6e	-0.027114596
86	0xbc8e3efa	-0.017364014
87	0xbc75cfaa	-0.015003124
88	0x3baca7ac	0.0052690115
89	0x3c299035	0.010349323
90	0xbd569385	-0.05238678
91	0xbb774179	-0.0037728234
92	0x3cbf3e21	0.023345055
93	0xbcdf94c5	-0.027292619
94	0xbd8608bc	-0.06544635
95	0x3d278bf8	0.04090497
96	0xbd033d89	-0.032041106
97	0xbd1e9c3e	-0.038723223
98	0xbc399660	-0.011327356
99	0x3c961a10	0.018322974
100	0xbb506727	-0.0031799765
101	0x3d2c8fe3	0.04212941
102	0xbcbb0c43	-0.022832995
103	0xbb8a6023	-0.004222886
104	0xbc1af1ef	-0.0094570955
105	0xbd81c1c3	-0.06335785
106	0xbd2ebe54	-0.04266198
107	0x3c702af8	0.014658682
108	0xbd6b2c3d	-0.057415236
109	0xbd7e9464	-0.062153235
110	0xbc3e5115	-0.011616011
111	0x3c28b8a8	0.010297932
112	0x3c9b216b	0.018936833
113	0x3ae6a16b	0.0017595714
114	0x3b548ebb	0.0032433707
115	0xbb776f00	-0.003775537
116	0x3c8a207f	0.016861198
117	0xbd4a9ebb	-0.049467783
118	0xbc703340	-0.014660656
119	0x3c4401c6	0.011963313
120	0xbc4224cf	-0.011849596
121	0x3d11d8f8	0.03560731
122	0x3d0df0a9	0.03465334
123	0x3cfb80b1	0.030701013
124	0xbddb57b8	-0.107100904
125	0x3cb3ee2f	0.02196416
126	0xbd6838f8	-0.056694955
127	0x3c780d11	0.015139834
128	0xbcbd4a52	-0.023106728
129	0x3b287a35	0.0025707607
130	0xbde99bbc	-0.11406657
131	0xbc485763	-0.012227866
132	0xbd229c92	-0.0397001
133	0x3e0f9f97	0.14025722
134	0x3e3ecc0d	0.18632527
135	0x3df8e031	0.12152136
136	0xbd9905d1	-0.074718125
137	0x3d9ab98e	0.07554923
138	0xbe444a26	-0.1916891
139	0x3d9a6c21	0.07540155
140	0x3c9c8d34	0.0191103
141	0x3d6696db	0.05629621
142	0xbe4cf6a3	-0.2001596
143	0x3e3f24b1	0.1866634
144	0xbe3c8388	-0.1840955
145	0x3cf4a8b8	0.029865608
146	0x3e101495	0.14070351
147	0x3e12b3a0	0.14326334
148	0x3dc4863d	0.095959164
149	0x3dc98516	0.09839837
150	0x3dbeae71	0.09310616
151	0x3b50c018	0.0031852778
152	0x3e4abca4	0.19798523
153	0x3e30e89e	0.17276236
154	0x3e2fcaa1	0.1716714
155	0x3e2461ce	0.16052935
156	0x3ca8a302	0.02058554
157	0xbe2b4bff	-0.16728209
158	0x3bc1fbcf	0.0059199105
159	0x3c8cd56d	0.017191613
160	0x3d1747dc	0.036933765
161	0xbd2f2f34	-0.042769626
162	0x3e074467	0.13209687
163	0x3e09941c	0.13435405
164	0xbd2efcbb	-0.04272149
165	0x3e15ae91	0.14617373
166	0x3e1d8ca3	0.1538568
167	0xbaa6e113	-0.0012731872
168	0xbc546221	-0.012962849
169	0x3dbbce67	0.091702275
170	0xbe15af16	-0.14617571
171	0xbd231617	-0.03981599
172	0xbd07d1ff	-0.033159252
173	0xbd2fda15	-0.04293259
174	0xbd925760	-0.07145572
175	0xbd184bca	-0.037181653
176	0xbd4b5b8f	-0.049647864
177	0x3b953907	0.0045539173
178	0xbbcc02c3	-0.006225915
179	0xbca0407b	-0.019561997
180	0xbccf45bc	-0.025301807
181	0x3cc867d2	0.024463568
182	0xbb534695	-0.0032238115
183	0x3d77f1d8	0.060533375
184	0xbc1a524f	-0.009419038
185	0xbba055ab	-0.004893025
186	0x3d3966c0	0.045264006
187	0xbd9f4c69	-0.07778246
188	0x3e1198ff	0.1421852
189	0x3c238926	0.009981429
190	0x3b6f4637	0.0036510357
191	0x3d911287	0.07083612
192	0xbd7932f5	-0.060839612
193	0x3ddacb70	0.10683334
194	0xbe0cf496	-0.13765177
195	0xbdf465f2	-0.11933507
196	0x3e2fa28e	0.17151853
197	0x3d1117a5	0.03542294
198	0x3d044eca	0.0323017
199	0x3d0c8286	0.034304164
200	0xbcff4a30	-0.031163305
201	0x3c968e4c	0.0183784
202	0xbcf3465b	-0.029696634
203	0x3c9533c0	0.018213153
204	0xbca387a4	-0.01996214
205	0x399ccb80	0.00029906258
206	0xbab0a0e0	-0.0013475679
207	0x3c8a669c	0.016894631
208	0xba20d0c0	-0.0006134622
209	0x3d1ed868	0.0387806
210	0xbc7adf7d	-0.015312073
211	0xbd1d6ca6	-0.038433693
212	0xbd7e1428	-0.06203094
213	0x3b8cecb9	0.0043006805
214	0xbdbf8688	-0.09351832
215	0x3c0a635e	0.008446543
216	0x3d1c32be	0.03813433
217	0x3cf1da9d	0.029523188
218	0x3c9158cc	0.017742537
219	0xbc311083	-0.010807159
220	0xbe4931a9	-0.1964785
221	0x3d76745e	0.06016957
222	0x3e01a4d9	0.1266054
223	0x3e194840	0.14968967
224	0xbe4d21e8	-0.20032465
225	0x3cbce47a	0.023058165
226	0xbd372c6b	-0.044720095
227	0x3d64652b	0.055760544
228	0xbda23ca6	-0.07921724
229	0xbdce2c9f	-0.100671045
230	0xbe0e2f5f	-0.13885258
231	0xbc87289e	-0.01649886
232	0xbd7e5a5f	-0.062097903
233	0x3c9ca4e3	0.019121593
234	0xbcc6ab4e	-0.024251606
235	0x3c45452a	0.012040416
236	0x3cbc7a0d	0.023007417
237	0xbd33d032	-0.043899722
238	0xbd1e7d90	-0.038693964
239	0xbc747996	-0.0149215665
240	0xbd916cfb	-0.071008645
241	0xbcca9e24	-0.02473361
242	0xbe3a1023	-0.18170218
243	0x3e271363	0.16315989
244	0x3e563517	0.2091869
245	0x3e2b8ba5	0.16752489
246	0xbe616e65	-0.22014768
247	0xbdc2064b	-0.094738565
248	0x3e9aa41b	0.30203328
249	0x3e3cf79d	0.18453832
250	0xbe0ea0e0	-0.13928556
251	0x3d56d78d	0.05245166
252	0x3bd7e910	0.0065890625
253	0xbcdf44ed	-0.027254546
254	0x3c5f8720	0.013643056
255	0x3a991880	0.0011680275

model2.0.bias f4 [100]
0	0xbd3de881	-0.04636431
1	0x3cb0c62f	0.021578876
2	0x3d597f08	0.053099662
3	0xbd535f78	-0.051604718
4	0xbd67ffa2	-0.056640275
5	0xbcbf4127	-0.023346497
6	0xbcbcf969	-0.023068147
7	0xbd0bc9b5	-0.03412791
8	0xbd81fd90	-0.06347191
9	0xbbd6ae94	-0.006551573
10	0x3d0f4d29	0.034985695
11	0xbd0e9aaa	-0.034815468
12	0xbd4c3002	-0.04985047
13	0xbc96cc58	-0.018407986
14	0x3c5b9a7b	0.01340353
15	0x3d0b6f06	0.034041427
16	0xbd4a7aa6	-0.049433373
17	0xbd455fe3	-0.048187148
18	0x3b5e720c	0.003394249
19	0x3d2f513b	0.042802077
20	0x3c6223c3	0.013802472
21	0xbc32b2bc	-0.010906871
22	0x3b091eaa	0.0020922818
23	0x3c80efba	0.01573931
24	0x3d2e4d70	0.04255432
25	0x3cc285d0	0.023745447
26	0x3d0081bd	0.031373728
27	0xbd0d2627	-0.034460213
28	0x3d15bae0	0.03655517
29	0x3beb48c5	0.0071803057
30	0x3d1b3830	0.03789538
31	0xbd039969	-0.032128725
32	0x3c96edef	0.018424002
33	0x3d6a079e	0.05713617
34	0x3cb0f64c	0.021601819
35	0x3cacdd67	0.021101667
36	0xbd06900b	-0.032852214
37	0x3c106eff	0.008815526
38	0x3d42a665	0.047521967
39	0xbba63b07	-0.0050729546
40	0x3cbec817	0.02328877
41	0xbcfdff0d	-0.031005407
42	0xbd2dfd50	-0.042477906
43	0x3c7ad939	0.015310579
44	0x3c9525a4	0.018206425
45	0x3cae8dd2	0.02130786
46	0xbcc47813	-0.023983037
47	0x3bad2544	0.0052839834
48	0x3b43ab3a	0.0029856698
49	0x3d30715e	0.043076865
50	0xbc8394b0	-0.01606211
51	0x3c1ad2c4	0.0094496645
52	0xbd308efc	-0.04310511
53	0xbd440295	-0.047854025
54	0x3cb6fce2	0.02233738
55	0x3c41f75a	0.011838758
56	0xbcf31c3e	-0.029676553
57	0xbcef2691	-0.029193195
58	0xbaac7437	-0.0013157193
59	0x3d723d6c	0.059140608
60	0x3d166ba6	0.036723755
61	0xbd017edd	-0.031615127
62	0xbd40be9b	-0.047056776
63	0xbcae47b6	-0.021274429
64	0xbb7e9209	-0.0038844368
65	0x3c9dde02	0.0192709
66	0x3d7ad0a5	0.061234135
67	0xbcd92ce5	-0.026510665
68	0x3ca6a0fa	0.020340431
69	0xbc4c0ff1	-0.012454973
70	0x3befb264	0.007314967
71	0x3d497ff5	0.049194295
72	0x3cf5b7e6	0.029994916
73	0xbcd69ad6	-0.026196878
74	0x3d649ab1	0.055811588
75	0x3d6497b3	0.055808734
76	0xbc7713a0	-0.015080363
77	0xbd0f2173	-0.03494401
78	0xbd5d82ae	-0.054079704
79	0x3d0f52bf	0.034991022
80	0x3d4b0031	0.04956073
81	0x3d019a64	0.03164138
82	0xbca7c6df	-0.020480571
83	0x3d6226c7	0.055212762
84	0xbd16c67e	-0.03681039
85	0xbd2492cb	-0.040179055
86	0x3c08d8aa	0.008352438
87	0x3c904350	0.017610222
88	0x3c5e3456	0.013562283
89	0x3ccb9bca	0.02485456
90	0x3d215342	0.03938604
91	0x3d3feb8f	0.046855506
92	0xbc8dba9e	-0.0173009
93	0xbcf11055	-0.029426733
94	0xbc94030f	-0.018067865
95	0x3c1d243f	0.009591161
96	0xbd3b6c8f	-0.045757826
97	0xbd252c0f	-0.04032522
98	0xbd18bb6a	-0.037288107
99	0xbbd89cab	-0.006610473

model2.1.weight f4 [20, 100]
0	0x3e0dfd08	0.13866055
1	0xbcc6ca09	-0.02426626
2	0xbdcdebbd	-0.10054729
3	0x3e3665d7	0.17812286
4	0x3d34082b	0.043953102
5	0xbe1aa2b1	-0.15101124
6	0xbd8f58b9	-0.069993444
7	0xbc0f9059	-0.0087624425
8	0x3e1b299d	0.15152593
9	0x3b993c30	0.0046763644
10	0xbe2c2c0c	-0.16813678
11	0x3d4fcd9e	0.0507332
12	0xbc9be338	-0.019029245
13	0xbcd94df5	-0.02652643
14	0x3e105e1a	0.14098397
15	0x3ccf8056	0.02532975
16	0x3d69e21a	0.057100393
17	0xbccb00d1	-0.024780663
18	0xbde92b8b	-0.11385258
19	0xbe121a46	-0.14267835
20	0xbcbb1f7f	-0.022842167
21	0x3d91d01b	0.07119771
22	0xbbc8455f	-0.0061117853
23	0xbcd92a39	-0.026509391
24	0xbc8e7f68	-0.017394736
25	0xbd8b7027	-0.06808501
26	0x3e7e11f4	0.24811536
27	0xbe223898	-0.15841901
28	0xbdf3955d	-0.11893723
29	0xbdc6d30a	-0.09708221
30	0xbcd96f3e	-0.026542302
31	0x3e29b19a	0.16571656
32	0xbd09ae64	-0.033613577
33	0x3d311e82	0.043241985
34	0xbe3e327d	-0.18573947
35	0x3e0b0f07	0.13579951
36	0x3d34c1a2	0.044129975
37	0xbdcf9192	-0.10135187
38	0xbd4231d6	-0.04741081
39	0x3e0ce59e	0.13759467
40	0xbd1ffa4d	-0.039057065
41	0xbdf2754d	-0.118387796
42	0x3d87b8c3	0.066270374
43	0xbe008ecf	-0.12554477
44	0xbd86399f	-0.06553959
45	0xbdb4b5b1	-0.088237174
46	0xbc7a8359	-0.015290105
47	0x3d806523	0.0626929
48	0x3db9c54d	0.09070835
49	0xbe000276	-0.12500939
50	0xbd9b89ef	-0.07594668
51	0x3dcb86fe	0.09937857
52	0xbab268da	-0.001361157
53	0x3d9bcc4c	0.07607326
54	0x3e1015bf	0.14070795
55	0xbd55b6bb	-0.05217622
56	0xbcf91ffa	-0.030410755
57	0xbe21c625	-0.15798242
58	0x3e17514b	0.14777105
59	0xbd5bbc78	-0.053646535
60	0xbdf66686	-0.120312735
61	0x3e269e21	0.16271259
62	0xbc1f7ea0	-0.00973478
63	0xbd8e9d70	-0.069636226
64	0xbbf67f3b	-0.0075224913
65	0x3e300d10	0.17192483
66	0xbdd6d439	-0.10489697
67	0xbc86cfe3	-0.01645655
68	0xbd16935f	-0.036761638
69	0x3dae7c95	0.08519856
70	0x3bf7af44	0.007558735
71	0x3b98a7a7	0.0046586576
72	0xbdff7a86	-0.12474541
73	0xbe1c0f6c	-0.15240258
74	0xbd80a5cc	-0.06281623
75	0xbe185a55	-0.14878209
76	0xbe1239ed	-0.1427991
77	0xbddaabc4	-0.10677293
78	0xbbcc8b31	-0.006242179
79	0xbdc7def3	-0.09759321
80	0xbc90ec11	-0.01769069
81	0xbdb6cebd	-0.08926151
82	0x3c3571c4	0.011074487
83	0xbc8fd3f0	-0.017557114
84	0xbc90b53a	-0.01766454
85	0xbe1a1ec5	-0.150508
86	0xbd20aff1	-0.03923029
87	0xbe301a88	-0.17197621
88	0x3e165fc8	0.14684975
89	0xbddb13a9	-0.10697109
90	0xbc7c193a	-0.015386874
91	0xbd3adcc4	-0.045620695
92	0x3e09273c	0.13393873
93	0x3cf65c0c	0.030073188
94	0xbe1346b5	-0.14382441
95	0xbe3cfe54	-0.18456393
96	0x3d2b2ac1	0.04178882
97	0x3dc207f9	0.09474177
98	0x3db1d698	0.08683509
99	0xbe097f15	-0.13427384
100	0x3d891c63	0.066948675
101	0x3e12a6ec	0.14321488
102	0xbda7020d	-0.08154688
103	0x3e13eef5	0.14446624
104	0x3dcfe7d1	0.10151637
105	0xbdf78b26	-0.12087087
106	0xbe176e7c	-0.1478824
107	0x3cfad6a1	0.030619921
108	0x3d8dd915	0.06926171
109	0x3da30011	0.07958997
110	0xbcf65866	-0.030071449
111	0xbc82ed4f	-0.015982298
112	0x3dd05627	0.10172682
113	0x3db940f7	0.09045594
114	0xbbb7ffa0	-0.0056151897
115	0xbd01e014	-0.03170784
116	0x3d04ab1a	0.032389738
117	0x3cf3630f	0.02971032
118	0xbd83dc66	-0.06438522
119	0xbe065652	-0.13118866
120	0x3c9ed1b5	0.019387105
121	0x3d3ef665	0.0466217
122	0x3cb4802c	0.022033773
123	0xbde348e1	-0.11097885
124	0xbd60b100	-0.0548563
125	0xbdb593c2	-0.08866073
126	0x3d305d03	0.043057453
127	0xbdce5079	-0.10073943
128	0xbdd818da	-0.10551615
129	0xbdd77a0d	-0.10521326
130	0xbc6cfb0b	-0.01446415
131	0x3dce4963	0.10072591
132	0xbdc470a1	-0.09591795
133	0xbd300329	-0.042971764
134	0xbdfb1064	-0.12258986
135	0x3e143c15	0.14476044
136	0xbd315d77	-0.043302026
137	0xbda69b04	-0.08135036
138	0xbe4c22ad	-0.19935103
139	0x3d8ab9f3	0.06773748
140	0xbdc0af42	-0.09408428
141	0xbdb8b1df	-0.09018301
142	0x3d68d561	0.05684412
143	0xbdd701bd	-0.104983784
144	0xbd8a89ef	-0.0676459
145	0xbe01b1aa	-0.1266543
146	0x3dfc6c1b	0.12325307
147	0x3dc6d84c	0.09709224
148	0x3e1f4f35	0.15557559
149	0xbdd5acc3	-0.10433342
150	0xbe22c33a	-0.15894786
151	0x3d810904	0.06300548
152	0x3df9a6c6	0.12190013
153	0xbb89eb91	-0.00420899
154	0x3cd693c3	0.026193505
155	0xbde5d3e3	-0.11222055
156	0xbe0d1be8	-0.13780177
157	0xbd9c412c	-0.07629618
158	0xbc6df7c8	-0.014524408
159	0xbe143231	-0.14472272
160	0xbe0cae28	-0.1373831
161	0x3d1a6a7f	0.03769922
162	0x3df400aa	0.11914189
163	0xbe10a3c6	-0.14124975
164	0x3dd5e4e7	0.1044405
165	0x3d21d8ce	0.0395134
166	0x3ceef09c	0.029167466
167	0x3b93b031	0.0045070876
168	0x3d8e3cb5	0.06945173
169	0x3d9b8a2e	0.07594715
170	0xba84f9ab	-0.0010145208
171	0xbde20099	-0.1103527
172	0xbd58df6e	-0.052947454
173	0xbe0fd2eb	-0.14045303
174	0xbe229bcf	-0.15879749
175	0xbdedac92	-0.11605181
176	0xbdde7f31	-0.108641036
177	0xbdf40e8e	-0.119168386
178	0x3d8a5c94	0.06755939
179	0xbdf89e28	-0.12139541
180	0xbd2436aa	-0.040091194
181	0xbd69e5de	-0.057103984
182	0xbdf104b7	-0.117684774
183	0xbe0a4d33	-0.13506012
184	0xbd895437	-0.06705516
185	0xbdd84a2a	-0.10561021
186	0xbc6c5340	-0.014424145
187	0x3c4ba4ed	0.012429458
188	0x3d95726f	0.07297217
189	0xbd855455	-0.06510226
190	0x3dc45096	0.09585683
191	0xbdaa7e5b	-0.08324882
192	0xbc2f7fe2	-0.010711642
193	0x3def303c	0.11679122
194	0xbd1e2318	-0.038607687
195	0xbd95698d	-0.07295523
196	0x3d824bfc	0.06362149
197	0x3e0995a4	0.1343599
198	0x3e012f3f	0.12615679
199	0xbd934a11	-0.071918614
200	0x3d7dbd23	0.061947953
201	0x3d0e35ff	0.034719463
202	0x3c864a9b	0.016392997
203	0x3dada4eb	0.08478721
204	0x3e065e97	0.1312202
205	0xbd883b8e	-0.06651984
206	0xbc08f0dd	-0.0083582075
207	0x3ded8ef6	0.11599533
208	0x3dbc09a1	0.09181524
209	0x3d06437a	0.032779194
210	0xbb64d21f	-0.003491528
211	0x3e197d3f	0.14989184
212	0x3e1b53c9	0.1516868
213	0x3e217e36	0.15770802
214	0x3d9ab633	0.07554283
215	0x3dd82e55	0.10555712
216	0x3dffa24d	0.12482128
217	0xbd139a07	-0.036035564
218	0x3ce56e05	0.028006563
219	0x3d0ecd34	0.034863666
220	0x3de3056b	0.11085018
221	0x3e1fafbe	0.15594384
222	0xbe1f9b4f	-0.1558659
223	0xbd9949ad	-0.07484756
224	0xbd9fbfd8	-0.07800263
225	0xbd774e1f	-0.060377236
226	0x3dd03249	0.10165841
227	0xbdbd98be	-0.09257649
228	0xbe12d05f	-0.143373
229	0x3ccabfb9	0.024749624
230	0xbd19c031	-0.037536804
231	0xbc8d0fde	-0.01721948
232	0xbe241927	-0.1602522
233	0x3c62c503	0.013840917
234	0xbc9a04cf	-0.018801121
235	0xbd0461bf	-0.03231978
236	0x3e079338	0.13239753
237	0xbdd5a0cc	-0.1043106
238	0xbe4e6d1d	-0.20158811
239	0x3e28497f	0.16434287
240	0xbd64a3d6	-0.05582031
241	0xbda90697	-0.0825321
242	0x3dd68ec2	0.10476448
243	0xbdc7fd35	-0.09765092
244	0xbd041bee	-0.0322532
245	0xbd5dcae1	-0.05414856
246	0x3daad6ab	0.08341726
247	0x3c6841cb	0.0141758425
248	0x3e0b87bf	0.13626002
249	0xbacabb54	-0.0015467205
250	0xbe5041e6	-0.20337638
251	0x3dcf3153	0.1011683
252	0xbb1a6953	-0.0023561313
253	0x3deb0229	0.114750214
254	0x3e08cbbb	0.13358967
255	0xbd616474	-0.05502744

model2.1.bias f4 [20]
0	0xbc90a292	-0.017655645
1	0xbdea23d3	-0.11432614
2	0x3c62cf79	0.013843411
3	0xbdb7dfa9	-0.08978207
4	0xbd1f01f0	-0.038820207
5	0xbbc215f3	-0.0059230267
6	0x3d8e85d8	0.069591224
7	0x3da65936	0.081224844
8	0x3d5fd364	0.054644957
9	0x3d38c59d	0.045110334
10	0xbbae5990	-0.0053207353
11	0x3d8d581b	0.069015704
12	0xbc5213b9	-0.012822085
13	0xbdb4bb47	-0.08824783
14	0x3da9dbbc	0.08293864
15	0xbd8eb361	-0.069678076
16	0x3da06257	0.07831257
17	0xbcd05531	-0.025431247
18	0x3b83a05c	0.004016919
19	0xbcd4a573	-0.025957799

model2.2.weight f4 [1, 20]
0	0x3e868479	0.26272944
1	0x3e841af5	0.25801817
2	0x3e965516	0.2936179
3	0x3e71f4ba	0.23628512
4	0xbe8176e7	-0.25286028
5	0x3e875326	0.26430625
6	0x3e8d5702	0.27605444
7	0xbe50c1b0	-0.20386386
8	0x3ea0eb43	0.3142949
9	0xbe58870b	-0.21145265
10	0x3e9a29ce	0.3011002
11	0x3e865bc3	0.26241884
12	0x3e95cb61	0.29256728
13	0x3e7217c6	0.23641881
14	0x3dd8e815	0.10591141
15	0x3e924c54	0.2857386
16	0x3eb79c3f	0.35861394
17	0xbe49f064	-0.19720608
18	0x3e59f050	0.21283078
19	0x3e6479d6	0.22312102
