textCNN/data_sentiment.pth (torch, 156935 bytes, 9 tensors)

model1.0.weight f4 [16, 1, 2]
0	0xbf0a7b1a	-0.5409409
1	0x3f101d91	0.56295115
2	0xbf299465	-0.6624206
3	0xbe910923	-0.28327283
4	0x3b8a7805	0.004225733
5	0x3f795487	0.97394603
6	0xbf6a98a4	-0.9163916
7	0x3f041cee	0.51606643
8	0xbf121deb	-0.570769
9	0xbe55ba00	-0.20871735
10	0x3f7b0d3e	0.9806708
11	0xbf213862	-0.6297666
12	0xbf706d5d	-0.93916875
13	0x3eba585f	0.36395547
14	0xbf1b573d	-0.6067999
15	0x3ba76c80	0.0051093698
16	0x3f127bf9	0.5722042
17	0x3f2fa481	0.6861039
18	0xbe7d4dff	-0.24736784
19	0x3dbab644	0.09116796
20	0x3e9fdd7e	0.31223673
21	0x3f59d2b2	0.8508712
22	0x3f3c757b	0.7361676
23	0x3f5b55c8	0.85677767
24	0xbe1a0a7c	-0.15043062
25	0xbeefdeec	-0.46849763
26	0x3f00a635	0.5025361
27	0x3f453e96	0.77048624
28	0xbf98dc1a	-1.194217
29	0x3f5f6a97	0.8727202
30	0xbed899e0	-0.42304897
31	0xbf0d9bf7	-0.5531611

model1.0.bias f4 [16]
0	0xbf1312fd	-0.5745085
1	0xbf0529c7	-0.5201687
2	0x3f178901	0.59193426
3	0x3f1f573a	0.6224247
4	0x3f23e93e	0.64027774
5	0xbea01b6d	-0.31270924
6	0x3f1c3b68	0.61028147
7	0xbedbf46d	-0.4295992
8	0x3ec60cd7	0.3868167
9	0x3ebd9e59	0.37034872
10	0x3b4de79b	0.0031418565
11	0x3e75c76f	0.24001859
12	0xbf098e29	-0.53732544
13	0x3ee0e1ee	0.4392237
14	0xbd9aefa5	-0.0756524
15	0x3f01801f	0.5058612

model1.3.weight f4 [32, 16, 2]
0	0xbdc41892	-0.09574999
1	0x3dc390d2	0.09549107
2	0xbe2d4d0b	-0.16923921
3	0xbd98c05a	-0.07458563
4	0x3e23c656	0.15993628
5	0xbe17a433	-0.14808731
6	0xbd844097	-0.06457632
7	0xbe14e0c8	-0.14538872
8	0xbdadaede	-0.08480619
9	0x3e018c05	0.1265107
10	0x3b868db5	0.0041062483
11	0x3e358184	0.17725188
12	0xbe170c26	-0.14750728
13	0xbc23d80f	-0.010000243
14	0x3e14be5f	0.14525746
15	0xbe1ccae2	-0.15311769
16	0xbdb88641	-0.09009982
17	0x3ca74f30	0.020423502
18	0xbcb44838	-0.022007093
19	0x3d7227dd	0.059120048
20	0xbdb21693	-0.08695712
21	0x3c22a167	0.009926177
22	0x3e0796bc	0.13241094
23	0x3e68be00	0.22728729
24	0x3d947450	0.07248747
25	0xbe15e05d	-0.14636369
26	0x3ced49ce	0.028965857
27	0x3e2bf256	0.16791663
28	0x3dd65674	0.104657084
29	0x3e9b66df	0.30351922
30	0x3d9c65b2	0.07636584
31	0xbe07c697	-0.1325935
32	0xbe291af2	-0.16514185
33	0xbd11a410	-0.035556853
34	0x3ddd7b4e	0.10814534
35	0x3d3ab044	0.045578256
36	0xbe059526	-0.13045177
37	0x3df7771e	0.12083267
38	0xbe2255a0	-0.15852976
39	0xbe10f2b1	-0.1415508
40	0x3c8e34b8	0.017359123
41	0xbe22b486	-0.15889177
42	0xbdfdd11d	-0.12393401
43	0xbcc212f8	-0.023690686
44	0xbe33b8f1	-0.17551018
45	0x3d63e904	0.055642143
46	0x3cd50cb0	0.026007026
47	0xbcee9fc0	-0.02912891
48	0x3c5c4d00	0.013446093
49	0x3d395d94	0.04525526
50	0x3e33aee1	0.1754718
51	0xbe319c3b	-0.17344753
52	0xbe0578a4	-0.13034302
53	0xbdf456e0	-0.119306326
54	0x3d132b98	0.035930246
55	0xbe27db9a	-0.16392365
56	0x39741000	0.00023275614
57	0xbd3e9a24	-0.04653372
58	0x3d2f77b4	0.042838767
59	0xbe161ddb	-0.14659826
60	0x3c861ac8	0.016370192
61	0xbda11a94	-0.078663975
62	0xbd9be6c3	-0.07612374
63	0x3d9c1d6a	0.07622798
64	0x3df290f2	0.118440524
65	0x3c0d5be0	0.008627862
66	0x3e2d0703	0.16897206
67	0xbcb18300	-0.021668911
68	0xbdeaa7ea	-0.11457808
69	0x3d0f3b10	0.034968436
70	0x3e30e533	0.17274933
71	0xbdbee80d	-0.09321604
72	0xbc22d560	-0.009938568
73	0xbbfcd940	-0.007716328
74	0x3e09d499	0.13460006
75	0x3e21e1d5	0.15808804
76	0x3b373e40	0.0027960688
77	0x3c0b3580	0.008496642
78	0x3df58bb2	0.119895354
79	0x3e083055	0.13299687
80	0xbd505d88	-0.05087045
81	0xbdd85d4f	-0.10564672
82	0x3dc0d68a	0.0941592
83	0x3cc88ba0	0.02448064
84	0xbd59ef74	-0.053206876
85	0x3da44d12	0.080225125
86	0xbe099542	-0.13435844
87	0xbe23f091	-0.16009738
88	0x3dcff182	0.10153486
89	0x3e14a9cb	0.14517896
90	0xbd3e85c0	-0.046514273
91	0x3d226204	0.039644256
92	0x3d9b27b2	0.07575931
93	0x3d2204d8	0.0395554
94	0x3d997abe	0.07494114
95	0x3d81047e	0.06299685
96	0x3db64f42	0.08901836
97	0x3d0bf8ec	0.034172937
98	0x3dc65ffe	0.09686278
99	0x3e2f0083	0.17090039
100	0xbdc662f9	-0.09686846
101	0x3df68591	0.120371945
102	0x3e09fb4f	0.13474773
103	0x3d847361	0.06467319
104	0x3e1b3d67	0.15160142
105	0x3cff02e6	0.031129312
106	0xbf0281fb	-0.50979584
107	0xbec05fd1	-0.37573102
108	0xbc8c3ef2	-0.017119858
109	0xbbb20825	-0.0054331
110	0xbd3ee92c	-0.04660909
111	0x3c3eeb20	0.011652738
112	0xbe5fcacb	-0.21854703
113	0xbd1c33c2	-0.038135298
114	0x3bab225b	0.0052226014
115	0x3d8b9d72	0.0681714
116	0xbecc92ed	-0.39955845
117	0xbdbe429e	-0.0929005
118	0xbe2ab1bf	-0.16669367
119	0x3cd95fb8	0.0265349
120	0x3e1a20d5	0.15051587
121	0x3e104c0d	0.14091511
122	0xbd999bf7	-0.07500451
123	0x3e22f567	0.15913926
124	0xbdbba7a0	-0.09162831
125	0x3e08b4a2	0.13350156
126	0x3e480264	0.19532162
127	0xbe53c81f	-0.20681809
128	0x3d3f468c	0.046698138
129	0x3de2a57a	0.110667184
130	0xbd18e12c	-0.037324116
131	0x3cd107e8	0.025516465
132	0xbe24faac	-0.16111249
133	0xbdb57840	-0.088608265
134	0x3d71c734	0.059027866
135	0x3e0beb75	0.13664038
136	0xbe328ee5	-0.17437322
137	0xbe0ba3a5	-0.13636644
138	0xbdd37ef7	-0.10326951
139	0x3c8b86c0	0.017032027
140	0x3d420f0c	0.04737763
141	0xbe338c85	-0.17534073
142	0xbdd469a0	-0.10371709
143	0x3d5bf6fc	0.05370234
144	0x3dba8f2e	0.091093406
145	0xbe1d6515	-0.15370591
146	0xbe03bd4b	-0.12865178
147	0x3e2c7025	0.16839655
148	0x3d12d800	0.035850525
149	0xbd0b450c	-0.034001395
150	0xbb294c00	-0.0025832653
151	0xbdebd636	-0.11515467
152	0x3de90046	0.11377005
153	0x3d71fc80	0.059078693
154	0x3e0a41b1	0.13501622
155	0xbe04e4f3	-0.12977962
156	0xbe17ea59	-0.1483549
157	0xbe24674f	-0.16055034
158	0xbd47b258	-0.048754066
159	0x3d1e9f48	0.03872612
160	0xbe1077d4	-0.14108211
161	0x3dd9408e	0.10608016
162	0xbde04849	-0.10951287
163	0x3dc94a66	0.098286435
164	0x3e2d060a	0.16896835
165	0x3bd36a6a	0.0064518945
166	0x3dbc5620	0.091961145
167	0x3de31753	0.11088433
168	0x3da87668	0.08225709
169	0xbdad170f	-0.08451664
170	0x3e87c73c	0.2651919
171	0x3d0472d8	0.032336086
172	0x3d89bd20	0.06725526
173	0x3c1f180a	0.009710321
174	0x3e1b77d3	0.15182428
175	0x3e185c2f	0.14878915
176	0x3e3b7ad9	0.18308581
177	0xbe7396ea	-0.23788038
178	0xbe071b84	-0.1319409
179	0x3d9c3a47	0.07628303
180	0x3deff067	0.11715775
181	0xbeb6c541	-0.35697368
182	0xbd2de56f	-0.042455133
183	0xbe958414	-0.2920233
184	0x3dea1e16	0.1143152
185	0x3dd8a32a	0.10577996
186	0x3d82b80b	0.0638276
187	0xb850005d	-4.9591403e-05
188	0x3ea8b986	0.32954043
189	0xbdd325de	-0.10309957
190	0x3c209836	0.009801915
191	0x3e19e9e0	0.15030622
192	0xbc88e800	-0.016712189
193	0xbe0c91f3	-0.1372755
194	0x3e3317dd	0.17489572
195	0xbc684e80	-0.014178872
196	0x3e04d091	0.12970187
197	0x3d67d148	0.05659607
198	0x3d2b27c8	0.041785985
199	0x3e0dacad	0.13835402
200	0x3e01e5fa	0.12685385
201	0xbd1a98ec	-0.037743494
202	0xbdd946b5	-0.106091894
203	0xbefcbde2	-0.4936362
204	0x3e3efb8e	0.18650648
205	0x3e06b160	0.131536
206	0x3e3155d5	0.17317899
207	0x3d1626dc	0.036658153
208	0xbde94e60	-0.11391902
209	0xbc872e14	-0.016501464
210	0x3ce17d0c	0.027525447
211	0x3dfa4d72	0.12221803
212	0xbdc4ca4f	-0.096089
213	0xbdcbee4e	-0.099575624
214	0x3dce1a39	0.10063595
215	0xbdc4d3c4	-0.096107036
216	0xbd3ef230	-0.046617687
217	0xbdcc4e61	-0.09975887
218	0x3dece74a	0.115675524
219	0xbde029db	-0.10945483
220	0x3ea92fcf	0.33044288
221	0x3dce1054	0.10061708
222	0x3cdfbda8	0.027312115
223	0xbe149a10	-0.14511895
224	0x3dedb96a	0.116076306
225	0x3d5a4274	0.05328603
226	0x3d34e4c0	0.044163465
227	0x3df8e9aa	0.12153943
228	0xbe1335a8	-0.14375937
229	0x3ddf4c56	0.10903232
230	0x3e0ad131	0.13556363
231	0xbe1e0882	-0.15432933
232	0xbdde8d7e	-0.10866831
233	0xbc45813b	-0.012054737
234	0xbf9fbde4	-1.2479825
235	0xbed6dbe8	-0.4196465
236	0x3da1ae92	0.07894625
237	0xbd2fba43	-0.042902242
238	0x3dc1a2c2	0.09454872
239	0xbc10b1e0	-0.008831471
240	0xbce2b624	-0.027674742
241	0x3e441861	0.19149925
242	0xbd0c1843	-0.034202825
243	0x3da5eb75	0.081015505
244	0xbeb1528d	-0.34633294
245	0x3e094097	0.13403545
246	0xbe228591	-0.15871264
247	0xbd1b04e2	-0.037846453
248	0x3e01c195	0.12671502
249	0xbcd12978	-0.02553247
250	0xbe4a7b8c	-0.19773692
251	0x3da83146	0.08212523
252	0x3e81f396	0.25381154
253	0x3df1ac4e	0.11800443
254	0x3e608a08	0.21927655
255	0xbe2ea5bd	-0.17055412

model1.3.bias f4 [32]
0	0x3e14550b	0.14485566
1	0x3e179255	0.14801915
2	0xbd7cb9d2	-0.06170065
3	0x3e335e29	0.17516388
4	0xbbbffac0	-0.005858749
5	0x3d1cd77b	0.038291436
6	0xbe04cb68	-0.12968218
7	0x3e15688a	0.1459066
8	0x3cd9d6ae	0.026591625
9	0x3d35bfdd	0.04437243
10	0x3cd53626	0.026026797
11	0x3e34c3a5	0.17652757
12	0x3ddb4d0b	0.10708054
13	0xbd33cf00	-0.043898582
14	0x3dd3d6e7	0.10343724
15	0xbda71a01	-0.08159257
16	0x3d95604c	0.07293758
17	0x3d423578	0.047414273
18	0x3e26a4de	0.1627383
19	0xbdd2b68a	-0.10288723
20	0xbdee7591	-0.11643518
21	0x3e228cb2	0.15873984
22	0xbe19b252	-0.1500943
23	0x3d43fe2c	0.04784982
24	0x3da8aebb	0.08236452
25	0x3e072f56	0.13201651
26	0xbd91a930	-0.07112348
27	0xbced5570	-0.028971404
28	0x3d9b90d1	0.07595981
29	0xbdf0293d	-0.117266156
30	0xbe0aa516	-0.13539538
31	0xbb6ec780	-0.003643483

model2.0.weight f4 [100, 352]
0	0xbe418087	-0.18896686
1	0xbb85ea17	-0.0040867436
2	0x3caecaef	0.021337
3	0x3d814345	0.06311659
4	0xbd3e0b6a	-0.046397604
5	0x3b58efae	0.0033101845
6	0x3ae42950	0.0017407332
7	0x3dca35dd	0.09873555
8	0xbd67cf96	-0.056594454
9	0x3c1b3a72	0.009474384
10	0x3cdb9132	0.026802633
11	0xbd57dd65	-0.052701373
12	0xbc897cc0	-0.016783118
13	0x3c76fbb8	0.015074663
14	0x3d52c22e	0.051454715
15	0x3d1b7398	0.037952036
16	0xbd45a073	-0.04824872
17	0xbc6ea964	-0.014566753
18	0x3cf66b40	0.030080438
19	0x3c335dd0	0.01094766
20	0xbd306f2e	-0.04307478
21	0xbcd7d890	-0.026348382
22	0xbce2bc75	-0.027677754
23	0x3cd279d0	0.02569285
24	0x3d53ef68	0.051741987
25	0xbd2dffef	-0.042480405
26	0x3cc3b084	0.02388788
27	0x3c665900	0.014059305
28	0xbc3060ec	-0.0107652955
29	0x3c468e78	0.012118928
30	0x3d521aca	0.05129508
31	0xbc8b7738	-0.017024621
32	0x3cfe9df8	0.031081185
33	0x3dc4c5b5	0.09608022
34	0xbcacae89	-0.021079319
35	0xbc80d451	-0.01572624
36	0xbd12eb2a	-0.0358688
37	0xbc020f26	-0.007938182
38	0x3cc782b0	0.024354309
39	0xbd41a6dd	-0.047278274
40	0x3ca5f2bc	0.020257346
41	0x3c214daf	0.009845181
42	0xbcc3fb7c	-0.023923628
43	0x3cc75dc1	0.024336698
44	0x3c45f0d0	0.01208134
45	0xbcfc2ee5	-0.03078408
46	0x3cc87040	0.024467587
47	0x3cfd2798	0.030902669
48	0xbc7c10a4	-0.015384827
49	0x3ad9cd20	0.0016616918
50	0xbb8dc7a0	-0.0043267757
51	0x3c01c950	0.007921532
52	0x3ba2fdb0	0.0049740896
53	0xbd46c81d	-0.048530687
54	0x3d2e4af4	0.04255195
55	0xbd0e6461	-0.034763698
56	0x3d957042	0.07296802
57	0xbc33658c	-0.010949504
58	0x3d29a4f6	0.041417085
59	0x3c501069	0.012699225
60	0xbd1e2a9d	-0.038614858
61	0x3d155972	0.036462255
62	0x3c59da46	0.013296669
63	0x3c9f406d	0.0194399
64	0x3d19133b	0.037371855
65	0x3dcabefd	0.098997094
66	0x3d55f1fb	0.052232724
67	0x3d2f4265	0.042787928
68	0xbcf9a0ec	-0.030472241
69	0xbb6b24de	-0.003588013
70	0x3c3c4173	0.011490214
71	0x3d1751b3	0.03694315
72	0xbb754677	-0.0037426034
73	0xbcc05025	-0.023475716
74	0xbb74e483	-0.003736765
75	0x3d6f28f3	0.05838866
76	0x3d10f39c	0.035388574
77	0x3e515d99	0.20445861
78	0x3c4ec004	0.012619022
79	0xbde345dc	-0.11097309
80	0x3dbe60f1	0.09295834
81	0x3dea19d8	0.114307106
82	0x3dda9d02	0.10674478
83	0xbe5127d5	-0.20425351
84	0xbd4c6159	-0.049897525
85	0x3d60e8bd	0.054909457
86	0xbce5e956	-0.028065365
87	0x3db81c5e	0.089897856
88	0x3cb2e788	0.021838918
89	0xbb8f4feb	-0.0043735406
90	0x3d5ec14d	0.054383565
91	0x3ad0b643	0.0015923459
92	0xbd289fb0	-0.041167915
93	0x3c993531	0.018702121
94	0xbc8c4334	-0.017121889
95	0x3d2cc9ee	0.042184763
96	0x3c506d26	0.0127213355
97	0x3cdc9b5c	0.02692955
98	0xbca5bb01	-0.020230772
99	0xbd768650	-0.060186684
100	0x3c038aa1	0.008028657
101	0xbd8cb5bb	-0.068706
102	0xbd56c0c9	-0.052429948
103	0xbc50772b	-0.012723724
104	0x3d8dff00	0.06933403
105	0xbbe62648	-0.0070236064
106	0x3c3b3fbf	0.0114287725
107	0xbd2a14bf	-0.04152369
108	0x3d0d6ba8	0.034526497
109	0x3da34c24	0.07973507
110	0x3e21fb94	0.15818626
111	0xbd495254	-0.04915078
112	0xbd0bd00f	-0.034133967
113	0xbe1cc493	-0.15309362
114	0xbd8e8260	-0.06958461
115	0x3de890e9	0.113557644
116	0x3c5145de	0.012773005
117	0xbd4e15dd	-0.05031382
118	0x3dafd8be	0.08586262
119	0x3de330ef	0.11093318
120	0x3da9cfd0	0.0829159
121	0xbc644a14	-0.013933677
122	0x3cf8ad28	0.030356005
123	0xbd21e1a8	-0.039521843
124	0x3d47c500	0.04877186
125	0xbd0cb59f	-0.034352895
126	0xbce3421e	-0.027741488
127	0x3a8f1a20	0.001091782
128	0x3d25063c	0.04028915
129	0x3d272782	0.040809162
130	0x3b8f91e0	0.0043814033
131	0xbd103f99	-0.0352169
132	0x3e1b6a87	0.15177356
133	0x3d916c0d	0.07100687
134	0xbdad3b09	-0.08458526
135	0xbdca467f	-0.09876727
136	0x3e498e33	0.19683151
137	0xbe211da3	-0.15733962
138	0xbcbf331a	-0.023339797
139	0xbd31cb86	-0.043406986
140	0x3ce34200	0.027741432
141	0x3dcfa9df	0.10139822
142	0xbdf966bf	-0.121778004
143	0xbbf9d7d8	-0.0076246075
144	0x3d4aeb18	0.04954061
145	0xbc9f3350	-0.019433647
146	0xbbf871e0	-0.0075819343
147	0xbb44a560	-0.0030005798
148	0x3d493686	0.049124263
149	0xbc947c38	-0.018125638
150	0xbcde1395	-0.027108947
151	0x3cd3abf4	0.02583883
152	0xbb839cd8	-0.0040165
153	0xbca79e18	-0.020461127
154	0xbdc71dae	-0.09722458
155	0xbdcf30ee	-0.101167545
156	0xbc8e52d1	-0.017373474
157	0xbb9168c1	-0.0044375365
158	0xbc2f4933	-0.010698604
159	0x3c917c50	0.017759472
160	0xbc919429	-0.017770844
161	0x3d967977	0.07347386
162	0xbcdf5b31	-0.027265163
163	0xbdc9362a	-0.09824784
164	0xbd6b9f65	-0.057525057
165	0xbd233280	-0.039843082
166	0x3c95eaac	0.018300377
167	0xbd197050	-0.037460625
168	0x3ce0b5b8	0.0274304
169	0xbd56120c	-0.052263305
170	0x3c4ef3b8	0.012631349
171	0x3c794a88	0.015215524
172	0x3d1f49b0	0.038888633
173	0x3d403238	0.046922892
174	0x3d4abdf8	0.049497575
175	0xbd313eb9	-0.043272708
176	0xbe3e504b	-0.18585317
177	0x3d2372f8	0.039904565
178	0x3d176208	0.036958724
179	0x3df5768a	0.119855
180	0x3de3575b	0.11100646
181	0xbd4cf7c7	-0.050040986
182	0xbc8fb249	-0.017541068
183	0xbd5b2cea	-0.05350963
184	0x3bb32ab9	0.0054677394
185	0xbe53c338	-0.20679939
186	0x3e066a0d	0.13126393
187	0x3d428922	0.04749406
188	0x3d4d8f8e	0.050185733
189	0x3d111716	0.035422407
190	0xbcc1d82c	-0.02366265
191	0x3c91fc74	0.017820574
192	0xbcb6d9fd	-0.022320742
193	0x3d03d8ce	0.032189183
194	0x3ab4ed40	0.0013803616
195	0xbd3cc31a	-0.0460845
196	0x3b1177b0	0.0022196583
197	0xbcdd07db	-0.026981285
198	0xbddb2f34	-0.10702363
199	0x3c2a630a	0.010399589
200	0xbb7a4c93	-0.0038192614
201	0x3d78d91a	0.06075392
202	0x3db7513f	0.08951043
203	0x38dbd5df	0.0001048257
204	0x3d9373af	0.07199799
205	0xbcb96681	-0.022631885
206	0xbd744240	-0.059633493
207	0xbad1d873	-0.0016009941
208	0x3d5b3f2f	0.053527053
209	0xbc4c2354	-0.012459595
210	0xbd3e9f8e	-0.046538882
211	0x3d58ccf3	0.05292983
212	0x3d9611b4	0.07327595
213	0x3e4e4cad	0.20146437
214	0xbd7ea6d1	-0.062170807
215	0xbd1f258c	-0.038854167
216	0xbd60d6b2	-0.05489225
217	0xbe025cb7	-0.1273068
218	0x3e32dabc	0.17466253
219	0x3d8a6b5e	0.0675876
220	0x3c8f191c	0.017468028
221	0x3c23b8a8	0.009992756
222	0xbcd96afe	-0.026540276
223	0xbc9e5f92	-0.01933268
224	0xbc92d27a	-0.017922629
225	0x3ce817ac	0.0283316
226	0x3cb9b28c	0.022668146
227	0xbd1afb06	-0.03783705
228	0x3c5544b8	0.013016872
229	0xbd319214	-0.0433522
230	0x3c2e3730	0.010633275
231	0x3d0f6f0c	0.035018012
232	0x3d9066ba	0.070508435
233	0x3d937d13	0.072015904
234	0x3de5d13a	0.112215474
235	0xbd3acc01	-0.04560471
236	0x3db9c3dd	0.09070561
237	0x3dd6d0a0	0.10489011
238	0xbd17b835	-0.037040908
239	0xbd02485a	-0.03180728
240	0x3d0c1ece	0.034209065
241	0x3d8e3e38	0.06945461
242	0x3cce48f0	0.025181264
243	0x3cbf3ac4	0.023343451
244	0x3d07e770	0.0331797
245	0x3d0afa3e	0.033930056
246	0xbd18b4b0	-0.037281692
247	0x3ceb816c	0.028748237
248	0xbc7ed31c	-0.015553262
249	0xbcfcfba3	-0.030881708
250	0xbcf9f9be	-0.030514594
251	0xbd47e5f8	-0.0488033
252	0x3c134140	0.008987725
253	0x3c57fbc9	0.013182589
254	0xbc9a9ef6	-0.018874627
255	0x3a61840e	0.00086027465

model2.0.bias f4 [100]
0	0x3b49c004	0.0030784616
1	0x3d893885	0.06700233
2	0xbd1b0e58	-0.037855476
3	0xbbd18026	-0.0063934503
4	0x3a7ec739	0.00097190175
5	0xbd51b67e	-0.05119943
6	0xbd1d6cbf	-0.038433786
7	0x3cec9ea2	0.028884236
8	0x3ce3b0ed	0.027794326
9	0x3d7bd5f3	0.061483335
10	0xbd315875	-0.04329725
11	0xbcbb9e47	-0.022902621
12	0x3ca243c9	0.019807713
13	0x3ca94dca	0.020666976
14	0x3b97a1a9	0.0046274257
15	0xbbd7b2f6	-0.006582613
16	0x3c96633d	0.018357867
17	0x3d67aac3	0.056559335
18	0xbd07ef09	-0.033186946
19	0xbd3a21c3	-0.045442354
20	0x3d3eb017	0.04655465
21	0xbd2feb92	-0.042949267
22	0xbc02589e	-0.007955698
23	0xbc6444c2	-0.013932409
24	0xbd80aca4	-0.062829286
25	0x3d7db33e	0.061938517
26	0xbd1ae334	-0.037814334
27	0x3984f492	0.0002535922
28	0x3cf532f4	0.029931523
29	0x3b2af6d2	0.0026087058
30	0x3ce9bbd0	0.028531939
31	0x3d7e659a	0.062108614
32	0xba944c3e	-0.0011314226
33	0x3d5366ed	0.05161183
34	0xbcd60f5f	-0.026130376
35	0x3c2dec35	0.010615398
36	0xbd7bf3c5	-0.061511774
37	0x3cd6df1d	0.026229436
38	0xbb7bb112	-0.0038405103
39	0x3c107220	0.008816272
40	0x3d1ca910	0.038247168
41	0xbc98bc24	-0.0186444
42	0xbcd8ec76	-0.02647994
43	0x3d1b85eb	0.03796951
44	0xbd862845	-0.065506496
45	0xbc0a4d64	-0.008441303
46	0xbd0dd305	-0.034625072
47	0x3d2f0d19	0.0427371
48	0x3d82bae7	0.06383305
49	0x3be5778d	0.007002777
50	0xbccdf032	-0.025138948
51	0x3d358591	0.044316832
52	0xbba69a4a	-0.0050843107
53	0xbce8d5a1	-0.028422179
54	0x3d0feddc	0.03513895
55	0x3c9d5d8c	0.019209646
56	0xbc951808	-0.018199936
57	0xbcdc477f	-0.02688956
58	0xbd74bdf0	-0.05975145
59	0x3cfad79c	0.030620389
60	0xbc872abf	-0.016499875
61	0xbc0b2610	-0.0084929615
62	0xbd4f71db	-0.05064569
63	0xbcbf39a2	-0.023342911
64	0x3d0a86ff	0.03382015
65	0x3cae2c1f	0.021261273
66	0x3cca4e8b	0.024695655
67	0x3d038212	0.032106467
68	0x3d2f53c7	0.042804506
69	0xbcd00110	-0.025391132
70	0x3c5635a0	0.013074309
71	0xbd8091c0	-0.062777996
72	0xbc2a3eab	-0.010390918
73	0xbc34e0af	-0.011039897
74	0xbc111520	-0.008855134
75	0x3d10cd12	0.03535182
76	0xbd10f80e	-0.035392813
77	0x3d75f39e	0.060046785
78	0x3c7f1ee2	0.015571328
79	0x3b56eb86	0.0032794192
80	0xba313444	-0.00067598023
81	0x3cf3a949	0.029743807
82	0xbcf6ea18	-0.030140921
83	0xbce58942	-0.028019551
84	0xbd0b9d7e	-0.034085743
85	0x3c3d584b	0.011556695
86	0x3c0fd49c	0.008778717
87	0x3c71a907	0.014749772
88	0xbcfeb387	-0.031091465
89	0xbd6ed42c	-0.05830781
90	0xbd00fdd9	-0.031492088
91	0xbbf9007d	-0.007598935
92	0x3c2f1b1f	0.0106876185
93	0xb9c2f596	-0.0003718554
94	0x3c998125	0.018738339
95	0xbd5f8289	-0.054567847
96	0xbd62dd74	-0.055386975
97	0xbca28b5c	-0.019841842
98	0x3d1eacd5	0.038739044
99	0x3d0c191c	0.034203634

model2.1.weight f4 [20, 100]
0	0x3e9e62e9	0.30934837
1	0x3e38ef94	0.18060142
2	0xbe6b114c	-0.22955817
3	0xbe63fcd8	-0.22264421
4	0x3e296571	0.16542603
5	0xbdd2e0b3	-0.10296764
6	0x3e4f7651	0.20259978
7	0xbe23b84c	-0.15988272
8	0xbe932316	-0.28737706
9	0x3de903e8	0.11377698
10	0xbccd0062	-0.025024597
11	0xbe23ebd0	-0.16007924
12	0x3df7f830	0.12107885
13	0x3c8b2530	0.016985506
14	0x3e9b67ed	0.30352727
15	0xbe75b558	-0.23994958
16	0xbe896cb1	-0.26840737
17	0x3e8869d2	0.26643234
18	0xbe0bbcca	-0.13646236
19	0xbe1c0344	-0.1523562
20	0x3ebcfcdf	0.36911675
21	0xbe543e9e	-0.20727012
22	0x3e86dad3	0.26338825
23	0xbe849f6f	-0.25902888
24	0xbe3b82ce	-0.18311617
25	0x3d9c4a48	0.076313555
26	0x3e8e273f	0.27764317
27	0xbe778363	-0.24171214
28	0xbe586e6f	-0.21135877
29	0x3e3335d2	0.17501
30	0x3eba06d4	0.36333334
31	0x3e76dbdc	0.24107307
32	0x3df99d31	0.12188185
33	0x3dfcce7f	0.123440735
34	0x3cbdc768	0.023166373
35	0x3d5b3ce7	0.053524878
36	0xbe5c08d6	-0.21487746
37	0xbd5f7577	-0.054555383
38	0x3e15be05	0.14623268
39	0x3e0fcc47	0.1404277
40	0xbe2e4b7b	-0.17020981
41	0x3e85fa35	0.26167455
42	0x3e45e34c	0.19324988
43	0x3e9f2fbb	0.31091103
44	0xbe7bb4a7	-0.24580632
45	0x3e05e142	0.1307421
46	0xbe94dc9a	-0.29074556
47	0x3e254563	0.1613975
48	0x3e632abf	0.22184275
49	0x3e024d6c	0.12724847
50	0x3e0d954c	0.13826483
51	0x3deadf6f	0.11468398
52	0xbd648095	-0.055786688
53	0xbe88ae38	-0.26695418
54	0xbe7f8759	-0.24953975
55	0x3d3d528e	0.04622131
56	0x3d989506	0.07450299
57	0x3e64e02d	0.22351141
58	0xbd7eb0fe	-0.06218051
59	0x3e0e0527	0.13869153
60	0xbe017ccb	-0.12645261
61	0xbe8ec37b	-0.27883515
62	0xbd8665e7	-0.06562405
63	0x3e8ad19d	0.27113047
64	0x3e473f9e	0.19457862
65	0x3e4bc5f8	0.19899738
66	0x3e8f47ca	0.27984458
67	0xbe8d336d	-0.27578297
68	0x3e58502b	0.21124332
69	0xbe3a6e33	-0.182061
70	0xbe73c960	-0.23807287
71	0xbeb1799a	-0.34663087
72	0xbd6ae531	-0.05734748
73	0xbe09e696	-0.13466868
74	0xbea195df	-0.31559655
75	0x3dbc30a1	0.09188963
76	0xbdd9c82f	-0.10633885
77	0x3eb62040	0.3557148
78	0x3e43e762	0.19131234
79	0xbde5e183	-0.112246536
80	0x3e912a9f	0.2835283
81	0xbe69a93e	-0.22818467
82	0x3e113ef2	0.14184168
83	0xbe87d6a2	-0.2653094
84	0xbee06536	-0.43827218
85	0x3d7558f4	0.059899285
86	0x3ec68a70	0.38777494
87	0xbe5b6544	-0.21425349
88	0x3ca5c2d0	0.020234495
89	0x3ba53fa6	0.005042988
90	0xbe1227f7	-0.14273058
91	0x3e0f4851	0.1399243
92	0x3dfe84a3	0.12427642
93	0xbd8e7023	-0.06954982
94	0x3e6a6a36	0.22892079
95	0xbd73a46a	-0.05948297
96	0xbe38391b	-0.17990534
97	0xbe572cd7	-0.21013199
98	0xbe2efd6a	-0.17088857
99	0xbe5f059a	-0.2177948
100	0xbcb97036	-0.022636514
101	0xbda4eedc	-0.08053371
102	0x3e2dc399	0.16969146
103	0x3e563c77	0.20921503
104	0xbe250fa9	-0.16119255
105	0x3dae01d9	0.08496446
106	0xbe50bf35	-0.2038544
107	0x3e00c870	0.12576461
108	0x3e223947	0.15842162
109	0xbe04480a	-0.12918106
110	0x3dfac0b5	0.12243787
111	0x3e195d6a	0.14977041
112	0xbd067333	-0.032824706
113	0x3e1c7adc	0.15281242
114	0xbe5190cd	-0.20465393
115	0x3e00137c	0.12507433
116	0x3e7b2077	0.24524103
117	0xbce83f94	-0.028350629
118	0x3d3e97bd	0.046531428
119	0x3de743d1	0.11292232
120	0xbdef9d06	-0.11699872
121	0x3bd7340b	0.0065674833
122	0xbc1fc2b7	-0.0097510135
123	0x3e1974d4	0.14985973
124	0x3da856cc	0.0821968
125	0xbdf57cdf	-0.11986708
126	0xbe4d6cc9	-0.2006103
127	0x3e21a14f	0.1578419
128	0x3e5e7f4e	0.2172825
129	0xbe03ea8f	-0.12882446
130	0xbe1e05b9	-0.1543187
131	0xbd65ebcd	-0.05613308
132	0xbdaef0cb	-0.08542021
133	0xbd64e77e	-0.05588483
134	0xbdd0a3ac	-0.10187468
135	0xbdff8e83	-0.12478354
136	0x3db0c529	0.08631355
137	0x3e13ecab	0.1444575
138	0xbe0cf88a	-0.13766685
139	0xbdebf311	-0.115209706
140	0x3e10818b	0.14111917
141	0xbd94e9b0	-0.07271135
142	0xbe2be653	-0.1678708
143	0xbddd2e5a	-0.107998565
144	0x3deef522	0.11667849
145	0xbe061593	-0.13094167
146	0x3e2cd8c7	0.16879569
147	0xbe49fb7e	-0.19724843
148	0xbdc13591	-0.09434045
149	0xbe1c70e2	-0.15277436
150	0xbdbb40a5	-0.09143189
151	0x3d2404ef	0.040043768
152	0xbc5e53ce	-0.013569785
153	0x3da88364	0.08228186
154	0x3e094334	0.13404542
155	0xbd739632	-0.05946941
156	0xbd4328a8	-0.047646195
157	0xbe23115c	-0.15924591
158	0x3e1e2075	0.15442069
159	0xbd292373	-0.041293573
160	0x3e415551	0.18880202
161	0x3e4a3e1c	0.19750255
162	0x3db7eaa7	0.08980303
163	0xbe3d3357	-0.18476616
164	0xbd8ef083	-0.06979468
165	0xbd212493	-0.03934152
166	0xbe2e7944	-0.17038447
167	0x3e281b5a	0.16416684
168	0xbddc6721	-0.10761858
169	0x3e4b2b92	0.1984084
170	0x3e57b72a	0.21065965
171	0x3e08801f	0.13330124
172	0x3df9b909	0.12193496
173	0x3e3a41ff	0.18189238
174	0x3df704f1	0.120614894
175	0xbe30aa9e	-0.17252585
176	0x3dde0986	0.1084166
177	0xbdfcc851	-0.12342895
178	0xbc94e52c	-0.018175684
179	0x3e2a6507	0.16640101
180	0xbe419bf6	-0.1890715
181	0x3defa357	0.117010765
182	0xbd3023fd	-0.04300307
183	0x3d449d74	0.04800172
184	0x3e835691	0.25651982
185	0xbe10f3b9	-0.14155473
186	0xbd55a268	-0.052156836
187	0x3e5b3f4f	0.21410869
188	0xbda3bf01	-0.079954155
189	0x3dd41869	0.10356218
190	0x3db949f8	0.090473115
191	0x3c16dbc7	0.009207672
192	0xbd555d44	-0.0520909
193	0x3d52496f	0.051339563
194	0xbd52387d	-0.051323403
195	0x3e3ca4d3	0.1842225
196	0x3e12467c	0.142847
197	0x3e15dadc	0.1463427
198	0x3d783f2e	0.060607128
199	0x3dd48c84	0.10378364
200	0x3e29fa95	0.16599496
201	0x3e045d33	0.12926178
202	0xbd9ac09e	-0.0755627
203	0xbd791f91	-0.06082112
204	0x3e383347	0.17988311
205	0xbe10acb8	-0.14128387
206	0x3e3f25fb	0.18666832
207	0xbe50ee43	-0.2040339
208	0xbd4bc107	-0.049744632
209	0x3dd879e9	0.105701275
210	0xbdf5f990	-0.12010491
211	0xbd861971	-0.06547821
212	0x3dcc2dcb	0.09969672
213	0xbdc3ee00	-0.09566879
214	0x3e71f048	0.23626816
215	0xbd8b53ca	-0.06803091
216	0xbe67e3df	-0.2264552
217	0x3dd97927	0.10618811
218	0xbd187c95	-0.037228186
219	0xbde863d9	-0.113471694
220	0x3e61a26d	0.22034617
221	0xbd3c0b37	-0.045909133
222	0x3de4340f	0.11142742
223	0xbe393ab1	-0.18088795
224	0xbe4c5666	-0.19954833
225	0x3e25ff85	0.16210754
226	0x3d61dcda	0.05514226
227	0xbdce0126	-0.10058813
228	0xbe456203	-0.1927567
229	0x3e10fbf6	0.14158615
230	0x3df9fcb2	0.12206401
231	0x3d8c47e0	0.068496466
232	0x3d9aa993	0.07551875
233	0x3e2a0360	0.1660285
234	0x3d7f2a87	0.062296417
235	0xbcc55396	-0.024087708
236	0xbae7f652	-0.001769731
237	0xbd7e1ae5	-0.062037367
238	0x3c779483	0.015111092
239	0x3ded3497	0.11582296
240	0xbcaa01aa	-0.020752747
241	0x3d6e480f	0.05817419
242	0x3cef0e65	0.029181669
243	0x3e33aaec	0.1754567
244	0xbe30e1a4	-0.17273575
245	0x3c80c1ed	0.015717471
246	0xbe2079c3	-0.15671448
247	0x3db3bffc	0.087768525
248	0x3e095703	0.13412099
249	0x3ddf7b71	0.109122165
250	0x3e3d90d0	0.18512273
251	0x3cbe5f0b	0.02323868
252	0xbdbb43a0	-0.09143758
253	0xbe096873	-0.1341875
254	0xbe2e1564	-0.17000347
255	0x3c109aa4	0.008825932

model2.1.bias f4 [20]
0	0x3cc979ec	0.02459427
1	0x3da17cf5	0.07885162
2	0x3cf84277	0.03030513
3	0xbd0a8307	-0.033816364
4	0x3b59fe26	0.0033263057
5	0xbce61546	-0.028086316
6	0xbde39295	-0.11111943
7	0xbcd0959a	-0.02546196
8	0xbdcf67d2	-0.10127224
9	0xbd94083e	-0.072281346
10	0xbd8296a6	-0.0637639
11	0xbd0fb623	-0.03508581
12	0x3d01e58b	0.03171305
13	0xbcd13b9b	-0.025541117
14	0xbd25582a	-0.040367283
15	0xbbeb6624	-0.007183807
16	0xbd920fa6	-0.07131891
17	0xbcbc29dd	-0.02296918
18	0x3d88782e	0.066635475
19	0xbd57f661	-0.0527252

model2.2.weight f4 [1, 20]
0	0xbee04899	-0.43805388
1	0x3ea96720	0.3308649
2	0xbebbb6fd	-0.36663046
3	0x3eadb4a8	0.33926892
4	0xbedd3d58	-0.43210864
5	0xbeb9ff4d	-0.36327592
6	0x3ebd9637	0.37028667
7	0x3ebaea85	0.3650705
8	0x3e89d3b5	0.26919332
9	0x3eccbcde	0.39987844
10	0x3ecc0573	0.39847907
11	0xbec7a9fb	-0.38996872
12	0x3ecb9722	0.39763743
13	0xbe840945	-0.25788322
14	0x3eead167	0.45862886
15	0x3ea970fd	0.33094016
16	0x3ecb4696	0.3970229
17	0x3f01138a	0.5042044
18	0xbeb2b23e	-0.34901613
19	0xbeae319c	-0.34022224
